models/best_model.pth (torch, 226933 bytes, 15 tensors)

lstm.weight_ih_l0 f4 [256, 5]
0	0x3cfe48ea	0.031040628
1	0x3da0bf31	0.07848967
2	0xbd6cef7e	-0.057845585
3	0x3d91a211	0.0711099
4	0xbd234ec5	-0.039870042
5	0x3b91b182	0.0044462094
6	0xbda91837	-0.08256572
7	0x3da17790	0.07884133
8	0x3dbab485	0.091164626
9	0xbe010d22	-0.12602666
10	0x3dca3eaf	0.09875237
11	0xbc0e1191	-0.00867118
12	0x3cfaa5f4	0.03059671
13	0x3c4dc2df	0.012558668
14	0x3d9f4610	0.07777035
15	0x3dcce0de	0.100038275
16	0x3d0fc81c	0.03510295
17	0xbda10b62	-0.07863499
18	0xbd83f2b9	-0.0644278
19	0x3d119e5c	0.035551414
20	0x3d043106	0.032273315
21	0xbd12944f	-0.03578597
22	0xbd0e4587	-0.034734275
23	0x3c7c0529	0.01538209
24	0xbe32d868	-0.17465365
25	0xbdac47fc	-0.084121674
26	0xbd25d21f	-0.04048359
27	0xbdc009d5	-0.09376875
28	0xbc94e218	-0.018174216
29	0xbe10fc43	-0.1415873
30	0x3e782479	0.24232663
31	0xbe324b21	-0.17411472
32	0x3d9ba130	0.075991035
33	0x3b6e5cfc	0.003637134
34	0xbd5cb1ca	-0.05388049
35	0x3d7c9af4	0.061671212
36	0x3c69b406	0.014264112
37	0x3df06848	0.1173864
38	0xbcd98897	-0.026554389
39	0xbd8f959d	-0.07010958
40	0x3dd7740f	0.10520183
41	0xbd892d50	-0.06698096
42	0x3cbc171b	0.022960236
43	0x3deab822	0.11460902
44	0x3d8e29c3	0.06941559
45	0xbcfe6afe	-0.031056877
46	0x3d60dee9	0.054900084
47	0xbc6956ac	-0.014241856
48	0x3d98f21d	0.074680544
49	0xbd9825fd	-0.07429121
50	0xbdf22e49	-0.118252344
51	0xbd6c14ac	-0.0576369
52	0xbe05f56e	-0.13081905
53	0x3d96b3aa	0.07358487
54	0x3cfdbce3	0.030973857
55	0x3c95c24f	0.01828113
56	0x3cb63ca3	0.02224571
57	0xbd248ef7	-0.040175404
58	0x3dc9d892	0.09855761
59	0xbdbebdf2	-0.09313573
60	0x3b10e55f	0.0022109372
61	0xbdc37586	-0.095439
62	0x3d4eec0b	0.050518077
63	0xbdc3a995	-0.095538296
64	0xbc6a55db	-0.014302696
65	0xbd6db5a9	-0.058034573
66	0x3db29fc7	0.08721881
67	0xbd4dca89	-0.05024198
68	0xbda8d4b0	-0.08243692
69	0xbde564ba	-0.11200853
70	0x3e24692a	0.16055742
71	0x3c952def	0.01821038
72	0x3deb229f	0.11481213
73	0xbe1bd40f	-0.15217613
74	0xbe1403dd	-0.14454599
75	0xbcc734bb	-0.024317136
76	0xbe2529e6	-0.16129264
77	0xbc116401	-0.00887394
78	0xbacb0106	-0.0015487976
79	0x3d618346	0.055056833
80	0xbd96266e	-0.07331549
81	0xbde560d5	-0.1120011
82	0x3d9c4221	0.076298006
83	0xbdaf61b4	-0.08563557
84	0x3d613817	0.054985132
85	0xbd5b248e	-0.05350166
86	0x3d646730	0.05576247
87	0xbdd58443	-0.104256175
88	0xbdc8ce81	-0.098050125
89	0x3c99e858	0.018787548
90	0xbdbc287c	-0.09187409
91	0xbd1664df	-0.036717292
92	0x3daa3a08	0.0831185
93	0x3cee065b	0.029055765
94	0xbe35b05b	-0.17743056
95	0xbdc9d89c	-0.09855768
96	0x3dbe7db6	0.09301321
97	0xbd8d94df	-0.069131605
98	0xbdc7fd52	-0.09765114
99	0xbe35f651	-0.17769744
100	0xbd5cc5db	-0.053899627
101	0x3a688a90	0.0008870745
102	0xbd92456b	-0.07142147
103	0xbe0902e1	-0.13380004
104	0xbbeea3e0	-0.007282719
105	0xbdfa86be	-0.12232731
106	0xbe029679	-0.12752713
107	0xbe6d3729	-0.23165573
108	0xbe21901e	-0.15777633
109	0xbdb5bdd0	-0.088740945
110	0x3e5cde15	0.21569093
111	0xbaf85091	-0.0018944909
112	0xbcd981a9	-0.026551085
113	0xbe36da7b	-0.17856781
114	0xbdb68e97	-0.089139156
115	0xbd802771	-0.06257523
116	0xbb47e6bb	-0.0030502516
117	0xbdae81df	-0.08520865
118	0xbdc0a9e2	-0.094074026
119	0xbe0b868c	-0.13625544
120	0xbcda40c5	-0.026642213
121	0xbd72e1d7	-0.05929741
122	0xbcc8aa18	-0.02449517
123	0xbdebcc7d	-0.115136124
124	0xbe097146	-0.13422117
125	0xbc4474d5	-0.011990746
126	0xbd6e3c34	-0.058162883
127	0xbe8c0deb	-0.2735437
128	0x3da562fc	0.080755204
129	0xbcdf897f	-0.027287243
130	0x3e1c226d	0.15247507
131	0x3c6794ac	0.014134567
132	0xbe1a5937	-0.15073095
133	0x3da6d428	0.08145934
134	0xbd1cfe51	-0.038328473
135	0xbd104021	-0.035217408
136	0xbe28f643	-0.16500191
137	0xbe1cc74d	-0.15310402
138	0x3c978aea	0.018498857
139	0xbd339660	-0.04384458
140	0x3d9529ff	0.07283401
141	0xbdf22e89	-0.11825282
142	0x3db13ae6	0.08653812
143	0xbe1a163a	-0.15047541
144	0xbd356ecd	-0.04429512
145	0x3c9a78ed	0.01885649
146	0x3d4bfa5f	0.04979932
147	0x3e1168df	0.14200161
148	0x3dd64517	0.104623966
149	0xbe43f43a	-0.19136134
150	0x3dc96b07	0.09834867
151	0xbda86f8e	-0.08224402
152	0xbd291c17	-0.041286554
153	0xbe04da5e	-0.12973925
154	0x3dce4498	0.10071677
155	0xbded4892	-0.11586107
156	0x3d6eda0b	0.05831341
157	0xbb3cf6e1	-0.0028833675
158	0x3c99e4db	0.018785885
159	0xbd4cc703	-0.04999448
160	0x3e3523b9	0.17689408
161	0x3ac8b0f0	0.001531152
162	0x3c23bd2c	0.009993833
163	0xbe0b6fdb	-0.13616888
164	0x3cd53cad	0.026029909
165	0xbd43ef13	-0.04783542
166	0xbd9a90ff	-0.07547187
167	0x3e1de1de	0.15418193
168	0xbcf8aa16	-0.03035454
169	0xbdc57628	-0.09641677
170	0xbd49ee45	-0.049299497
171	0xbce35173	-0.027748799
172	0x3d8a97f4	0.06767264
173	0xbda76498	-0.081734836
174	0xbdc66ffc	-0.09689328
175	0x3cfa806f	0.03057882
176	0xbdf4ddc0	-0.11956358
177	0x3cde348c	0.027124666
178	0xbc96a8ca	-0.018391032
179	0xbe0a5b23	-0.13511328
180	0x3cc1a196	0.02363662
181	0x3d425b79	0.047450516
182	0x3db538e7	0.08848744
183	0xbdc482d9	-0.0959527
184	0x3bcd6a63	0.006268786
185	0x3dc54872	0.096329585
186	0x3d05f2d6	0.03270229
187	0xbda66f01	-0.08126641
188	0xbd9028ee	-0.07039057
189	0xbc5682fb	-0.013092752
190	0x3c54fcd9	0.012999737
191	0xbd7b72b6	-0.061388694
192	0x3c756c16	0.014979383
193	0x3dc2e500	0.095163345
194	0xbc61a6a0	-0.013772637
195	0xbd36ea99	-0.044657324
196	0xbc8f6b5f	-0.017507253
197	0xbd4431e5	-0.047899146
198	0x3bad5531	0.0052896966
199	0x3d048e0c	0.03236203
200	0xbd837a22	-0.06419779
201	0xbdab3088	-0.08358866
202	0xbd25f443	-0.04051615
203	0x3d0ea9aa	0.034829773
204	0xbca36fc4	-0.019950755
205	0xbdc5ae9d	-0.096524455
206	0xbdc83f6b	-0.09777721
207	0xbe0ecf0f	-0.13946174
208	0xbd1e6940	-0.038674593
209	0x3cedfe29	0.029051857
210	0x3e3298bb	0.17441075
211	0x3ce6c41d	0.028169686
212	0xbe094f44	-0.13409144
213	0xbe0a27d5	-0.13491757
214	0xbd0cc350	-0.034365952
215	0x3e3b786e	0.18307659
216	0xbbc1c8ac	-0.0059138145
217	0xbe280b6f	-0.16410612
218	0x3ce8edae	0.028433647
219	0xbd3f0890	-0.046639025
220	0xbcbb8df4	-0.022894837
221	0x3d05402b	0.0325319
222	0xbdeae8a3	-0.11470153
223	0xbd85387e	-0.06504916
224	0xbe1f567a	-0.15560332
225	0x3de5bc7a	0.1121759
226	0x3d91faeb	0.07127937
227	0x3dd9516c	0.10611233
228	0xbe19cc94	-0.15019447
229	0xbe20b3c6	-0.15693578
230	0xbdb7fd31	-0.08983839
231	0x3cd791f8	0.02631472
232	0x3d19a0f4	0.037507012
233	0x3d94345d	0.0723655
234	0x3d589568	0.05287686
235	0x3c82aa60	0.015950382
236	0xbdbfdfe4	-0.093688756
237	0xbd6b720f	-0.05748182
238	0xbe230e9f	-0.15923546
239	0xbe43168a	-0.19051567
240	0x3d4b66c4	0.04965855
241	0xbd9b5008	-0.07583624
242	0xbcb58f80	-0.022163153
243	0xbd917893	-0.07103076
244	0xbd217017	-0.039413538
245	0xbdb45108	-0.08804518
246	0xbdc7748d	-0.09739027
247	0x3da4b747	0.0804277
248	0xbdacf87f	-0.08445834
249	0x3d35abca	0.044353284
250	0xbde3de67	-0.11126404
251	0xbe3ab558	-0.1823324
252	0xbd97d264	-0.07413176
253	0xbdb24597	-0.087046795
254	0xbd783b87	-0.060603645
255	0xbdf060ae	-0.1173719

lstm.weight_hh_l0 f4 [256, 64]
0	0xbdb93a6e	-0.09044348
1	0xbcffded0	-0.031234175
2	0xbc438480	-0.011933446
3	0xbd8e75e0	-0.069560766
4	0xbdbd1634	-0.092327505
5	0x3dac30aa	0.084077194
6	0x3dadbbb2	0.08483066
7	0xbde87f06	-0.11352353
8	0x3d22ecac	0.03977649
9	0x3d504860	0.050850272
10	0x3df33120	0.11874604
11	0x3d941c18	0.07231921
12	0x3deb59a6	0.114917085
13	0xbd279fa0	-0.040923715
14	0x3db34c86	0.0875483
15	0x3dd03b12	0.10167517
16	0xbdf1bf7c	-0.11804101
17	0xbdcd7e30	-0.10033834
18	0x3ccf4360	0.025300682
19	0x3d8bc922	0.068254724
20	0xbd7e5e48	-0.062101632
21	0x3c618e30	0.01376681
22	0xb93e4800	-0.00018146634
23	0x3d019754	0.03163846
24	0xbd898fbe	-0.0671687
25	0x3d9064dc	0.070504874
26	0x3daa3e0e	0.08312617
27	0xbdb1a0b2	-0.08673228
28	0x3a9eb800	0.001210928
29	0x39b5d600	0.00034682453
30	0x3d246948	0.040139467
31	0x3dee7c52	0.11644806
32	0x3d1626a0	0.03665793
33	0xbce8ace0	-0.028402746
34	0x3de5ec0a	0.112266615
35	0xbd42d534	-0.047566608
36	0xbd14ab9c	-0.036296472
37	0x3c0bd3f0	0.008534417
38	0xbdc2f23e	-0.0951886
39	0x3c5edba0	0.013602167
40	0xbdadb092	-0.08480944
41	0x3c5293a0	0.012852579
42	0x3c4436c0	0.011975944
43	0x3c8dbe28	0.017302588
44	0xbdd7e238	-0.10541195
45	0xbdf32510	-0.118723035
46	0x3d6b9480	0.057514668
47	0x3ddb8b68	0.10719949
48	0xbde32ad6	-0.11092155
49	0x3d3da450	0.04629928
50	0xbdbc7276	-0.09201519
51	0x3c006450	0.007836416
52	0x3dee2bec	0.11629471
53	0x3dc234de	0.0948274
54	0xbdbb2bfa	-0.09139247
55	0x3d9e5aba	0.077321485
56	0x3d85b694	0.06528965
57	0xb9490c00	-0.00019173324
58	0x3df7fe7a	0.121090844
59	0xbd4b5a8c	-0.0496469
60	0xbcee4d10	-0.02908948
61	0xbd8162d2	-0.063176766
62	0x3c9359b0	0.017987102
63	0x3d079220	0.03309834
64	0x3c232f60	0.009960026
65	0xbd9008fc	-0.07032964
66	0xbd667c38	-0.056270808
67	0x3d2e2878	0.042519063
68	0xbde077b2	-0.1096033
69	0xbc9f78e0	-0.019466817
70	0xbb357740	-0.0027689487
71	0xbd4f71a4	-0.050645486
72	0x3d3a5378	0.04548976
73	0x3c040050	0.008056715
74	0x3db3ba82	0.08775808
75	0xbc35e2d0	-0.01110144
76	0xbda1924a	-0.078892305
77	0x3db4e094	0.088318974
78	0x3c8f0018	0.0174561
79	0xbd12a2c8	-0.03579977
80	0xbda8baf6	-0.08238785
81	0x3cf003a8	0.029298618
82	0xbdf42920	-0.119219065
83	0x3d06d974	0.032922223
84	0x3d7d27dc	0.06180559
85	0xbde09036	-0.10965006
86	0xbda7989c	-0.08183405
87	0xbdb80b86	-0.08986573
88	0x3dd72b70	0.10506332
89	0x3dd9a182	0.10626508
90	0x3c0034e0	0.007825106
91	0x3df05594	0.11735073
92	0xbd2b29e4	-0.041787997
93	0xbdf887ce	-0.12135278
94	0x3d32d6c8	0.043661863
95	0x3d3562b0	0.04428357
96	0x3dfafa56	0.12254779
97	0xb817c000	-3.618002e-05
98	0x3dc4328a	0.09579952
99	0x3d9ceb32	0.076620474
100	0x3db948ea	0.090471104
101	0xbdfe097a	-0.12404151
102	0x3dd2ce24	0.102932245
103	0xbdda3a5a	-0.10655661
104	0x3de581c0	0.112063885
105	0xbba9bda0	-0.0051800758
106	0xbde2df20	-0.11077714
107	0x3d0e622c	0.034761593
108	0xbcd06e90	-0.025443345
109	0xbde5f000	-0.11227417
110	0xbd399e9c	-0.045317277
111	0x3c5328d0	0.012888148
112	0x3dc7627e	0.09735583
113	0xbd1d676c	-0.03842871
114	0x3d980e48	0.07424599
115	0x3c803be8	0.015653566
116	0x3b8a1140	0.004213482
117	0x3cc3eff0	0.023918122
118	0xbda8013a	-0.08203359
119	0xbdd4c968	-0.10389978
120	0xbd20e058	-0.03927645
121	0xbdee8dfc	-0.11648175
122	0xbd6ec580	-0.05829382
123	0x3bbc70a0	0.0057507306
124	0xbda89a9e	-0.08232616
125	0xbd546024	-0.0518495
126	0xbcb7ffb8	-0.022460803
127	0xbc6befc0	-0.014400423
128	0xbd8d50d4	-0.06900182
129	0x3bc4d120	0.006006375
130	0xbc8fbaa8	-0.01754506
131	0x3d126e04	0.03574945
132	0x3bb90180	0.0056459308
133	0xbd7fad64	-0.062421218
134	0xbd3045fc	-0.043035492
135	0xbabcd680	-0.0014407188
136	0xbd9fbd80	-0.07799816
137	0x3c2053e0	0.009785622
138	0xbc1099c0	-0.008825719
139	0x3d46a520	0.04849732
140	0x3cf25880	0.029583216
141	0x3dbf9610	0.09354794
142	0xbb8706c0	-0.0041206777
143	0xbdbd28e4	-0.09236315
144	0x3d64de5c	0.05587612
145	0xbdad03b6	-0.084479734
146	0xbc8cc050	-0.017181545
147	0xbd25c978	-0.04047534
148	0xbd42468c	-0.04743056
149	0xbd3d6e88	-0.04624799
150	0x3deb3e60	0.114865065
151	0x3d928c88	0.071557105
152	0x3d0de4f4	0.034642175
153	0x3df05f76	0.11736958
154	0xbde7fe2a	-0.11327775
155	0x3ca53d88	0.020170942
156	0x3da3e29a	0.08002205
157	0x3daa0ee8	0.083036244
158	0xbdcbbd12	-0.09948172
159	0x3d363728	0.044486195
160	0xbd91d6f0	-0.07121074
161	0xbba00be0	-0.004884228
162	0xbcd5ada8	-0.026083782
163	0xbdd5c03c	-0.104370564
164	0xbdf433bc	-0.1192393
165	0xbda86c00	-0.08223724
166	0x3d68549c	0.056721315
167	0x3d6a34fc	0.057179436
168	0xbddea8d6	-0.10872047
169	0xbd404714	-0.046942785
170	0x3b05cfc0	0.0020418018
171	0xbddd5548	-0.10807282
172	0x3d903e8e	0.07043181
173	0x3de7de14	0.11321655
174	0x3cb51b40	0.02210772
175	0xbdbe3638	-0.09287685
176	0x3ceec868	0.029148296
177	0x3d39dcec	0.045376703
178	0x3dcab63a	0.09898038
179	0xbd8835bc	-0.06650874
180	0xbde55a58	-0.11198872
181	0x3d60f290	0.054918826
182	0x3bff0080	0.007782042
183	0xbd26d2b8	-0.0407283
184	0xbd568a18	-0.05237779
185	0xbd83ff66	-0.06445198
186	0x3dcf3b32	0.101187125
187	0xbcb0ae18	-0.02156739
188	0x3db8a106	0.09015088
189	0x3de484b0	0.11158121
190	0x3c81b760	0.01583451
191	0x3cda2148	0.026627198
192	0xbc0b7a80	-0.008513093
193	0x3dafd322	0.08585192
194	0xbde6adb2	-0.112635985
195	0x3d4b9d1c	0.049710378
196	0xbca6d6d0	-0.020366102
197	0x3d69c99c	0.057077035
198	0xba11f300	-0.0005567521
199	0xbd3d9384	-0.04628326
200	0xbc5d14e0	-0.0134937465
201	0x3d8a3cf8	0.0674991
202	0xbdb1ccb6	-0.08681624
203	0xbda1d140	-0.079012394
204	0xbce55f50	-0.02799955
205	0xbd39b708	-0.045340568
206	0x3d492238	0.0491049
207	0x3dac47c0	0.08412123
208	0xbc5b5680	-0.013387322
209	0x3df21120	0.118196726
210	0xbd55ec80	-0.052227497
211	0xbd8fa824	-0.07014492
212	0xbd653828	-0.055961758
213	0xbdb0607e	-0.086121544
214	0xbdb37066	-0.08761673
215	0xbde41998	-0.11137694
216	0xbde2e332	-0.1107849
217	0x3d05a19c	0.032624826
218	0x3d9c1f64	0.07623175
219	0x3df0584c	0.11735591
220	0x3dda0f64	0.10647467
221	0xbbebe760	-0.007199213
222	0x3cc6b428	0.024255827
223	0xbd992b7c	-0.07478997
224	0x3d45e618	0.048315138
225	0xbdf5769c	-0.119855136
226	0x3d717f1c	0.05895911
227	0x3cbbd148	0.022926942
228	0x3d1d56fc	0.038413033
229	0x3d3b77cc	0.045768544
230	0xbd6b0fc8	-0.057388097
231	0x3ddbacdc	0.1072633
232	0x3d745a70	0.05965656
233	0x3da82a40	0.082111835
234	0x3c873f98	0.016509816
235	0x3da0c3ba	0.07849832
236	0x3dac49cc	0.08412513
237	0x3d680e68	0.056654364
238	0x3dc30346	0.09522109
239	0xbcb9bb20	-0.022672236
240	0x3da8544a	0.08219202
241	0x3cebedc0	0.028799891
242	0x3d9a08c0	0.075212
243	0x3df957f8	0.12174982
244	0x3ce7df20	0.028304636
245	0xbd3e0998	-0.046395868
246	0xbc4bc4a0	-0.012437016
247	0x3d102480	0.03519106
248	0x3caca7e8	0.021076158
249	0xbd0bdcf4	-0.034146264
250	0x3dc894aa	0.097939804
251	0x3d99ce82	0.07510091
252	0xbd9f03ee	-0.077644214
253	0xbc26dfc0	-0.010185182
254	0xbc449860	-0.01199922
255	0xbda0716e	-0.07834135

lstm.bias_ih_l0 f4 [256]
0	0xbd7adbb0	-0.061244667
1	0xbe0554d1	-0.13020636
2	0x3d730223	0.05932821
3	0xbbbc75bf	-0.005751341
4	0xbc0f6d5a	-0.008754099
5	0x3ab4b28e	0.0013786124
6	0x3c862576	0.016375285
7	0xbe194589	-0.14967932
8	0x3d1ab926	0.037774228
9	0x3d9919a6	0.07475595
10	0xbcd59f05	-0.026076803
11	0xbd963034	-0.07333413
12	0xbd1bfe02	-0.038084038
13	0xbbed0810	-0.007233627
14	0xbc8a89f4	-0.016911484
15	0xbe3fff38	-0.18749702
16	0x3d3e75cd	0.046499062
17	0xbd0d3aa9	-0.03447977
18	0xbcd2ec69	-0.025747495
19	0xbde76836	-0.112991735
20	0x3d8253bc	0.06363627
21	0xbe048c16	-0.12944064
22	0xbdb089cd	-0.086200334
23	0xbe1b6dc0	-0.15178585
24	0x3d01a3cb	0.031650346
25	0xbdaa9ec6	-0.08331065
26	0xbd38dcc6	-0.04513242
27	0xbd597c95	-0.053097326
28	0x3d45b18b	0.04826502
29	0xbdec753b	-0.115457974
30	0xbde7e04a	-0.113220766
31	0xbe293ebf	-0.16527842
32	0xbd72f2e8	-0.059313685
33	0xbe0882cf	-0.1333115
34	0xbd614a89	-0.055002723
35	0x3b815b86	0.003947678
36	0xbcaf0959	-0.021366762
37	0xbd105b58	-0.035243362
38	0xbda078e8	-0.07835561
39	0xbe1295bf	-0.14314936
40	0xbdb1c3e8	-0.08679944
41	0x3d9d4270	0.076786876
42	0xbcb5b066	-0.02217884
43	0xbd0df36e	-0.03465598
44	0xbdf4288e	-0.11921798
45	0x3d30225e	0.043001525
46	0x3d0fc6ce	0.035101704
47	0xbd9fd4cd	-0.078042604
48	0x3d9b9b6f	0.07598006
49	0xbc697b04	-0.014250521
50	0xbd44bf3f	-0.04803395
51	0xbcbdff36	-0.023192983
52	0xbe21d926	-0.15805492
53	0x3d121dfd	0.03567313
54	0xbdd8ed48	-0.10592133
55	0xbddc9a49	-0.10771615
56	0xbd8084d5	-0.06275336
57	0xbe0687b1	-0.131377
58	0xbe09f156	-0.13470969
59	0x3d81dcda	0.06340952
60	0xbd9df8ff	-0.07713508
61	0x3b3f4c9b	0.0029189948
62	0xbb924781	-0.0044640903
63	0x3dcdca2f	0.10048329
64	0xbd6ff74c	-0.05858545
65	0xbd83106c	-0.063996166
66	0x3df5241a	0.119697765
67	0xbdaa8b58	-0.08327359
68	0xbdfc0184	-0.123049766
69	0xbcb3e5c8	-0.021960154
70	0x3d90c004	0.07067874
71	0x3d64906c	0.055801794
72	0xbdabb508	-0.08384138
73	0xbdc63ec8	-0.09679943
74	0x3d246d58	0.04014334
75	0xbda7b0de	-0.081880316
76	0x3d8def44	0.06930402
77	0xbce7f010	-0.028312713
78	0xbd4f4ad0	-0.050608456
79	0xbcb805a8	-0.022463635
80	0x3dd0655c	0.10175583
81	0xbd99f71e	-0.07517837
82	0xbdc494f8	-0.09598726
83	0x3d4f5798	0.050620645
84	0x3d57bd28	0.052670628
85	0xbcc49838	-0.023998365
86	0x3d9a2474	0.07526484
87	0xbcf6e9b0	-0.030140728
88	0xbd56ab18	-0.05240926
89	0xbdc2ae24	-0.09505871
90	0xbd80062e	-0.06251179
91	0xbd8e4da4	-0.069484025
92	0x3d082978	0.033242673
93	0xbcbbe110	-0.022934467
94	0x3db8bd18	0.09020442
95	0xbd783acc	-0.060602948
96	0x3d9510e0	0.07278609
97	0x3dcfacd8	0.10140389
98	0xbce974b8	-0.028498039
99	0xbd8f1150	-0.06985724
100	0x3d7eec80	0.062237263
101	0xbdf3af40	-0.11898661
102	0x3da96f7a	0.082732156
103	0x3dc47e9c	0.09594461
104	0xbbeefe20	-0.0072934777
105	0xbd9eabaa	-0.07747586
106	0x3c823dc8	0.0158986
107	0x3db942ee	0.09045969
108	0x3c891728	0.016734675
109	0x3cbf8c28	0.023382261
110	0x3d5f29ac	0.0544831
111	0x3d90c9b0	0.07069719
112	0x3cdf6c70	0.027273387
113	0xbd8b85fa	-0.068126634
114	0x3b64cdc0	0.0034912676
115	0xbd5a5b04	-0.053309456
116	0x3d80d186	0.062899634
117	0xbd83a446	-0.06427817
118	0x3ddfc342	0.10925914
119	0x3d577768	0.05260411
120	0xbdffbb44	-0.1248689
121	0xbd567724	-0.052359715
122	0xbc99ef08	-0.018790737
123	0xbd260054	-0.040527657
124	0xbb88e340	-0.004177481
125	0xbd88f91a	-0.06688137
126	0x3db3f410	0.087867856
127	0x3d694af8	0.05695626
128	0xbc83496e	-0.016026225
129	0xbd1e1158	-0.03859076
130	0xbdc33468	-0.0953148
131	0xbdaca6d0	-0.084302545
132	0xbd9361fc	-0.071964234
133	0x3dc663e4	0.096870214
134	0x3c05e808	0.008172996
135	0xbd4b516e	-0.049638204
136	0xbc3d8e2a	-0.011569539
137	0xbbbf1ec9	-0.0058325273
138	0x3b79b4a5	0.0038102057
139	0x3c99f63c	0.018794172
140	0x3dd11122	0.10208346
141	0xbd5eefe2	-0.05442799
142	0xbcdd8187	-0.027039303
143	0xbd41d863	-0.047325503
144	0xbd3c0595	-0.04590376
145	0xbdb591d3	-0.088657044
146	0x3b7b0d37	0.0038307437
147	0xbd504d71	-0.050855104
148	0xbd25b909	-0.040459666
149	0x3df4e6b8	0.119580686
150	0x3dc48e65	0.09597472
151	0x3cad74d3	0.02117387
152	0x3d82441b	0.06360646
153	0x3d788139	0.06067011
154	0xbad6ece8	-0.0016397508
155	0xbc31f60c	-0.010861885
156	0x3ba7243e	0.005100756
157	0xbdd03b87	-0.10167604
158	0x3dc48b07	0.0959683
159	0xbd8d8c6b	-0.06911548
160	0xbcf4926a	-0.029854972
161	0xbdd5c74a	-0.10438402
162	0xbde48f42	-0.11160137
163	0x3dfe0186	0.12402634
164	0xbc2188e3	-0.0098592965
165	0x3c59c7e0	0.013292283
166	0x3cb46753	0.022021925
167	0x3d99a82f	0.075027816
168	0x3caf7fe9	0.021423297
169	0x39a0d078	0.000306729
170	0xbd505402	-0.050861366
171	0x3b6cfd03	0.003616155
172	0x3c5231ef	0.012829288
173	0xbd863e9d	-0.06554911
174	0xbd936629	-0.0719722
175	0xbd879cf5	-0.06621734
176	0x3dd59fbf	0.1043086
177	0x3d48cbb4	0.04902239
178	0x3d977d5d	0.07396958
179	0x3d9222a0	0.071355104
180	0xbc9df6ef	-0.019282786
181	0xbd9d70cd	-0.07687531
182	0x3dc6f753	0.09715142
183	0x3cc1e81e	0.023670252
184	0xbd115a5a	-0.035486557
185	0x3cff8a8d	0.031193996
186	0xbd307764	-0.04308261
187	0x3b8aedf9	0.0042397943
188	0x3df43089	0.1192332
189	0x3cc8d497	0.024515433
190	0xbde3b1b9	-0.11117882
191	0x3ddd6355	0.10809962
192	0xbcabaa7a	-0.020955313
193	0xbd8873d3	-0.06662717
194	0x3d318f48	0.043349534
195	0x3bb438a9	0.0054999185
196	0x3d42d945	0.047570486
197	0x3cc0aca5	0.023519823
198	0xbdd97413	-0.106178425
199	0xbe02f716	-0.12789568
200	0x3d65969e	0.056051843
201	0xbcc9bf78	-0.024627432
202	0x3d74c136	0.059754573
203	0x3cc29ce8	0.02375646
204	0xbe3444cb	-0.17604367
205	0x3d55c6c8	0.052191526
206	0x3cce01d6	0.02514736
207	0xbe6b16c6	-0.22957906
208	0xbcc4dbf6	-0.024030667
209	0xbe121e33	-0.14269333
210	0x3d05bb9c	0.03264962
211	0x3acef3cf	0.0015789213
212	0xbb830611	-0.003998526
213	0x3d221252	0.039568253
214	0xbde67be7	-0.11254101
215	0xbd91a8c0	-0.07112265
216	0xbdc4f545	-0.09617094
217	0x3d7f7e5a	0.062376358
218	0x3d2d7133	0.042344283
219	0xbdb50a78	-0.088398874
220	0xbe1a95ef	-0.15096258
221	0xbc4b47c5	-0.012407248
222	0x3d5009e1	0.05079067
223	0xbd8ecbe1	-0.069724806
224	0x3c834e83	0.016028648
225	0xbdeea1ae	-0.11651932
226	0xbe0b8191	-0.13623644
227	0xbe1c33e3	-0.15254168
228	0xbe10ce2e	-0.14141151
229	0xbdc5cbf8	-0.096580446
230	0xbdd99d43	-0.106256984
231	0xbb8b669e	-0.0042541763
232	0x3d0d8cf5	0.034558255
233	0xbc02bc2c	-0.007979434
234	0x3bae1afd	0.005313276
235	0xbe0b0153	-0.13574724
236	0xbe0c2d3b	-0.13689129
237	0xbe1fc0d0	-0.15600896
238	0x3d8e14cd	0.06937561
239	0xbdbdaf41	-0.09261943
240	0xbd4365a8	-0.04770437
241	0xbe0c885b	-0.1372389
242	0xbcc63f5d	-0.024200136
243	0xbe39b29a	-0.18134537
244	0x3d489506	0.048970245
245	0xbe2549e2	-0.16141465
246	0xbc6f4394	-0.014603514
247	0x3ccc0625	0.024905274
248	0xbe20f7cb	-0.15719526
249	0x3d6178d7	0.055046882
250	0x3d86b82b	0.06578096
251	0x3d4c4942	0.04987455
252	0x3d5fd3b4	0.054645255
253	0xbdc6a6ca	-0.09699781
254	0xbd592a57	-0.053018894
255	0x3db7b540	0.089701176

lstm.bias_hh_l0 f4 [256]
0	0x3c85dfa8	0.016342
1	0xbdf3c6de	-0.11903165
2	0x3d8d9463	0.06913068
3	0xbd8e0690	-0.069348454
4	0xbd802f15	-0.0625898
5	0xbcacccd2	-0.02109376
6	0x3da682a0	0.081303835
7	0xbdccb324	-0.09995106
8	0xbcb950d7	-0.022621555
9	0xbcffc101	-0.031219961
10	0xbda199ab	-0.07890638
11	0x3ca28f74	0.019843794
12	0xbd454d2d	-0.048169304
13	0xbdf25956	-0.11833446
14	0xbd2885dd	-0.041143287
15	0xbcfcef19	-0.03087573
16	0xbdbbe4cf	-0.09174501
17	0x3d8d26cf	0.06892168
18	0xbe0b4fba	-0.13604632
19	0xbcc84142	-0.02444518
20	0x3d063ebb	0.03277467
21	0x3b82b69a	0.003989053
22	0x3bb2fb7a	0.0054621072
23	0xbd4915b7	-0.049092975
24	0xbdb52a93	-0.08846011
25	0x3d6715b5	0.056417186
26	0xbd997a4a	-0.07494028
27	0x3d7828dc	0.06058584
28	0x3d96b8c6	0.073594615
29	0xbdf1584d	-0.1178442
30	0x3d582aa9	0.05277506
31	0xbc4f5cc7	-0.012656397
32	0xbdf08594	-0.11744228
33	0xbdc2abd9	-0.095054336
34	0xbd8e9ac6	-0.069631144
35	0x3d94d038	0.07266277
36	0x3d2ec508	0.042668372
37	0xbda50005	-0.08056644
38	0xbe01fc35	-0.12693866
39	0xbe099125	-0.13434274
40	0xbe05e351	-0.13074996
41	0xbce3a485	-0.02778841
42	0xbe1df232	-0.15424421
43	0xbe2cb3ca	-0.16865459
44	0xbe242520	-0.16029787
45	0xbbd5ddac	-0.0065266695
46	0xbb6d9cc8	-0.003625678
47	0xbd8b31a0	-0.067965746
48	0x3dbb7081	0.09152318
49	0x3bd116ca	0.0063808905
50	0xbdcab4ba	-0.09897752
51	0xbc00dc7e	-0.007865069
52	0xbdc4f375	-0.09616748
53	0x3d89530b	0.06705292
54	0xbdb5d5bc	-0.08878657
55	0xbe06851c	-0.13136715
56	0xbda24605	-0.079235114
57	0xbddb5a58	-0.10710591
58	0xbd88ce67	-0.06679993
59	0xbd702462	-0.058628447
60	0xbd2c3fac	-0.04205291
61	0xbd739d9d	-0.059476484
62	0xbdee9e0b	-0.11651238
63	0xbe0e7aa5	-0.13913973
64	0xbdb91408	-0.09037024
65	0xbdee36fa	-0.1163158
66	0xbdff4954	-0.12465158
67	0x3df86f36	0.12130587
68	0x3d95e61e	0.07319282
69	0x3d6824f8	0.05667588
70	0x3da4d696	0.080487415
71	0x3d1b9ed0	0.037993252
72	0xbd2922b0	-0.041292846
73	0xbc7e5940	-0.015524209
74	0xbd5273c0	-0.05137992
75	0x3d66f29c	0.056383714
76	0x3d03c630	0.03217143
77	0xbdd7069a	-0.10499306
78	0x3c9f21c8	0.019425288
79	0xbdc51442	-0.096230045
80	0x3dc07f48	0.09399277
81	0x3c5e7f10	0.013580099
82	0xbafcd900	-0.0019290745
83	0xbd975c6a	-0.073906735
84	0x3c9dc1e0	0.019257486
85	0x3c824b80	0.015905142
86	0x3d0371e0	0.03209102
87	0xbdb34a64	-0.08754423
88	0xbd58377c	-0.05278729
89	0xbdb26376	-0.08710377
90	0xbda007e0	-0.07814002
91	0xbd8c4c22	-0.06850459
92	0xbdce7c20	-0.10082269
93	0x3dfb83f0	0.122810245
94	0xbdf243da	-0.11829348
95	0xbd0610e0	-0.032730937
96	0x3bada740	0.005299479
97	0xbd4e2ef0	-0.05033773
98	0xbd0e04a8	-0.03467241
99	0x3d6fa280	0.05850458
100	0xbceb4cd8	-0.028723165
101	0xbc720890	-0.014772549
102	0x3de1e59a	0.11030121
103	0xbd37cdc0	-0.044873953
104	0xbbb53900	-0.0055304766
105	0x3da2dca4	0.0795224
106	0xbcf02100	-0.02931261
107	0xbdcc3500	-0.099710464
108	0x3dc52218	0.096256435
109	0xbddca026	-0.107727334
110	0xbdfc50cc	-0.12320098
111	0xbd837476	-0.064186975
112	0x3c87d5d0	0.016581446
113	0x3dcf6c0a	0.10128029
114	0xbdc7d940	-0.09758234
115	0xbd7eda8c	-0.06222014
116	0x3de740da	0.11291666
117	0x3dc7dbc4	0.09758714
118	0x3d41e658	0.047338814
119	0xbdd8baee	-0.10582529
120	0x3d8cb064	0.06869581
121	0xbc0226e0	-0.007943839
122	0xbdc4c39c	-0.09607622
123	0x3dc88bb6	0.09792273
124	0xbdaf1754	-0.08549371
125	0x3ca6e218	0.020371482
126	0xbd8b7b5a	-0.06810637
127	0x3dd907a4	0.105971605
128	0xb998d8d3	-0.00029153246
129	0xbc6a6492	-0.014306204
130	0x3d90756c	0.070536464
131	0x3dcfd9b2	0.10148944
132	0xbc4fe8e1	-0.0126898
133	0x3d8381aa	0.06421216
134	0xbd15e03f	-0.03659081
135	0xbd3bc99e	-0.045846574
136	0xbd8e6727	-0.069532685
137	0xbdf7a80d	-0.120926
138	0x3dac0689	0.08399684
139	0x3c143137	0.009044937
140	0xbd843370	-0.064551234
141	0xbdcdef96	-0.10055463
142	0x3da09325	0.078405656
143	0x3d86fb9d	0.0659096
144	0xbdb0efb7	-0.08639472
145	0x3c0faeee	0.008769734
146	0xbcfc21f4	-0.030777909
147	0x3d27e657	0.040991154
148	0xbd4a1931	-0.04934043
149	0xbd64d54a	-0.05586747
150	0xbdb940d1	-0.09045566
151	0xbd3f4af9	-0.04670236
152	0x3b036cff	0.002005398
153	0x3d26d562	0.04073084
154	0x3c9faae7	0.019490672
155	0x3d3413ec	0.04396431
156	0xbcd142bb	-0.025544515
157	0xbd38ad88	-0.045087367
158	0xbda13bb5	-0.07872716
159	0xbdac9159	-0.0842616
160	0xbd8da8fc	-0.06916997
161	0xbcd7e409	-0.026353853
162	0x3da42cfa	0.08016391
163	0xbdfa5e4e	-0.122250184
164	0x3dc2f439	0.09519238
165	0x3d1cfa56	0.038324676
166	0x3d5d2d2f	0.05399817
167	0x3d3351d7	0.04377922
168	0x3d7f971b	0.062399965
169	0x3dd4f662	0.10398556
170	0x3d58439a	0.052798845
171	0xbd399f98	-0.045318216
172	0x3d082938	0.033242434
173	0x3c37e820	0.0112247765
174	0xbd2c612a	-0.04208485
175	0x3d09af1a	0.033614255
176	0x3df954ad	0.12174354
177	0x3dbeb962	0.09312703
178	0xbd4c6633	-0.049902152
179	0xbcbca70a	-0.02302887
180	0x3cf4641c	0.029832892
181	0x3d9b855d	0.075937964
182	0xbe069ab7	-0.13144957
183	0x3ca493b0	0.020089954
184	0xbbad0954	-0.005280653
185	0x3dce7fb6	0.10082953
186	0x3da447fd	0.08021543
187	0xbd667b92	-0.05627019
188	0xbd163691	-0.036673132
189	0x3daea520	0.08527589
190	0xbcfdf8af	-0.03100237
191	0x3cb7065d	0.022341901
192	0x3d7ccc8f	0.06171852
193	0xbe13250a	-0.14369598
194	0xbd858fff	-0.06521606
195	0xbe26a292	-0.16272953
196	0xbd81e5fd	-0.06342695
197	0x3c06d36b	0.008229117
198	0xbd13dc74	-0.036098912
199	0x3cc7d741	0.024394633
200	0xbdf34835	-0.11879007
201	0x3d1ee05c	0.038788185
202	0xbdc4db76	-0.09612171
203	0x3d2ed94c	0.0426877
204	0xbdb43b40	-0.088003635
205	0x3db0786d	0.086167194
206	0xbcde5744	-0.02714122
207	0xbd88222d	-0.066471435
208	0xbe011393	-0.12605123
209	0xbcc8dee1	-0.02452034
210	0x3d826425	0.06366757
211	0xbe2434da	-0.16035786
212	0x3d4e90a6	0.050430916
213	0x3c01ba6d	0.0079179825
214	0xbdc56715	-0.09638802
215	0xbe17dae7	-0.14829598
216	0x3c6d2af8	0.014475577
217	0xbd91d2a8	-0.071202576
218	0x3c650991	0.013979332
219	0xbcedd5a8	-0.029032543
220	0x3d932290	0.07184327
221	0xbdc0bac1	-0.094106205
222	0xbd83e781	-0.0644064
223	0x3c442564	0.011971805
224	0xbdbb2f67	-0.09139901
225	0xbd75bf8e	-0.059997134
226	0xbda4dfd7	-0.080505066
227	0x3d9e6997	0.077349834
228	0x3cac55bd	0.021036977
229	0xbe2593f3	-0.1616972
230	0xbc93c19d	-0.018036658
231	0x3d597f67	0.053100016
232	0xbbb3a5a2	-0.0054823915
233	0x3db8be95	0.09020726
234	0xbd8efdd7	-0.0698201
235	0xbd31f954	-0.04345067
236	0x3d2167cb	0.039405625
237	0x3d9ba2d3	0.07599416
238	0xbdacd6f5	-0.08439437
239	0xbda314c5	-0.07962946
240	0xbc0932c2	-0.008373918
241	0x3db2c340	0.08728647
242	0xbdd1f522	-0.102518335
243	0xbd97cf23	-0.07412555
244	0x3c2f58a0	0.010702282
245	0xbd8235f0	-0.06357944
246	0xbdcd2f6d	-0.100188114
247	0x3d5c444c	0.05377607
248	0xbdd21278	-0.10257429
249	0x3d23ff29	0.04003826
250	0xbda8b1d7	-0.08237045
251	0xbe249de1	-0.16075851
252	0xbe14c1f6	-0.14527115
253	0xbbd3db3f	-0.006465345
254	0x3d6f584b	0.058433812
255	0xbd23f6a7	-0.040030148

fc.weight f4 [1, 64]
0	0x3d27892c	0.0409023
1	0x3c1079a4	0.008818064
2	0x3bf5aa7c	0.00749713
3	0x3da2ea1e	0.079548106
4	0x3d8dc553	0.06922402
5	0x3d860372	0.06543626
6	0xbd53c668	-0.051702887
7	0xbd80d5fb	-0.062908135
8	0x3d92a39d	0.07160113
9	0x3dd421cc	0.10358009
10	0x3d06fdf1	0.03295702
11	0x3cb7c7d7	0.022434158
12	0x3b28d9c4	0.0025764564
13	0x3d28bc43	0.041195165
14	0xbd05258e	-0.032506518
15	0x39890ded	0.00026141052
16	0x3db599ff	0.08867263
17	0xbd38f9d0	-0.045160115
18	0xbd9f1ace	-0.077687845
19	0xbb3f90fa	-0.00292307
20	0x3cdd6601	0.027026178
21	0xbda5ced5	-0.08096091
22	0x3d3100df	0.04321372
23	0x3b96cb6c	0.0046018865
24	0x3a6faa86	0.00091425364
25	0x3d5555a1	0.052083615
26	0x3cbf815d	0.023377115
27	0xbaf62d16	-0.0018781747
28	0xbd98fb88	-0.07469851
29	0x3dd898a2	0.105759874
30	0xbbb4babd	-0.005515425
31	0xbd139ea2	-0.036039956
32	0x3ccc99d3	0.024975693
33	0x3d867127	0.06564551
34	0x3b1612b6	0.0022899336
35	0xbcfc27aa	-0.030780632
36	0xbdacd008	-0.08438116
37	0x3c89bb30	0.01681289
38	0x3b0f5fab	0.002187709
39	0x3cdfb0c1	0.027305963
40	0x3d4b5cea	0.049649157
41	0xbd56aa53	-0.052408528
42	0x3bdd33ff	0.006750583
43	0x3d90ae15	0.070644535
44	0xb9cd05da	-0.00039105007
45	0xbca57ba1	-0.020200552
46	0xbd599680	-0.053122044
47	0xbb46d40a	-0.0030338787
48	0xbd761d3c	-0.060086474
49	0xbd8a1079	-0.06741423
50	0xbd8e793d	-0.06956718
51	0xbac7e284	-0.0015250002
52	0xbbb93e7a	-0.0056531997
53	0x3c806629	0.015673714
54	0x3d02e66b	0.031958025
55	0xbd94f072	-0.07272424
56	0xbb946a58	-0.0045292787
57	0x3da33b61	0.0797031
58	0x3a1182cc	0.0005550801
59	0x3d51b4cc	0.051197812
60	0xbd568858	-0.05237612
61	0x3d9d37b3	0.076766394
62	0x3d033a3c	0.03203796
63	0xbd91f479	-0.071267076

exp_avg f4 [256, 5]
0	0xb759dc82	-1.2985549e-05
1	0xb7812833	-1.5396718e-05
2	0x36684e79	3.461637e-06
3	0xb6dba669	-6.5460813e-06
4	0x37d14f35	2.4951625e-05
5	0xb5c523e6	-1.4688092e-06
6	0xb4343e95	-1.6786574e-07
7	0xb4caa87e	-3.7748026e-07
8	0x362467a8	2.449824e-06
9	0x36039ec0	1.9612926e-06
10	0x34575cfd	2.0057264e-07
11	0xb5cf1d73	-1.5431273e-06
12	0x35479a58	7.4357877e-07
13	0x3471010c	2.2445255e-07
14	0x359d666d	1.1727221e-06
15	0x37aeb869	2.0828289e-05
16	0x35f8253e	1.8488279e-06
17	0xb62245a2	-2.4180413e-06
18	0x363454f1	2.6871533e-06
19	0xb7d1b9ea	-2.5001314e-05
20	0xb716ebe4	-8.995619e-06
21	0xb75523ba	-1.2704108e-05
22	0xb74ce1d7	-1.221193e-05
23	0x3749de75	1.2032328e-05
24	0xb6b320f7	-5.3384533e-06
25	0x370ec9dc	8.510859e-06
26	0x3840a3cf	4.5928926e-05
27	0x372f75e8	1.0458265e-05
28	0xb84fc9cb	-4.954058e-05
29	0xb7a0e2dc	-1.9179126e-05
30	0x374a6763	1.206421e-05
31	0xb66c2f1a	-3.5194157e-06
32	0xb668b56b	-3.4676293e-06
33	0x3700f84d	7.687207e-06
34	0xb7ce0a07	-2.4561783e-05
35	0x371bb2dd	9.280365e-06
36	0x37c18e21	2.3073577e-05
37	0x36d427a9	6.3227094e-06
38	0xb8160305	-3.57656e-05
39	0xb82acc87	-4.072164e-05
40	0xb77b6e9c	-1.4986519e-05
41	0xb72fc9da	-1.047781e-05
42	0xb7043a5a	-7.881399e-06
43	0x374eb44a	1.2320534e-05
44	0x383274db	4.2547337e-05
45	0xb80e7eab	-3.3973407e-05
46	0xb89398ae	-7.037945e-05
47	0xb7595f66	-1.295642e-05
48	0x38be58bb	9.076433e-05
49	0x38cca690	9.758503e-05
50	0x3706edca	8.042387e-06
51	0x37b4072e	2.1461015e-05
52	0x365db864	3.3038896e-06
53	0xb7b3936b	-2.140711e-05
54	0xb75d0f86	-1.3176241e-05
55	0x371cad00	9.338604e-06
56	0x3727c17b	9.999024e-06
57	0x36767899	3.6727054e-06
58	0x36850c3a	3.9651322e-06
59	0xb72fc704	-1.047715e-05
60	0x348b5884	2.595517e-07
61	0xb3dae889	-1.0193714e-07
62	0x330707a2	3.143908e-08
63	0x33cfe7fa	9.681385e-08
64	0xb3ed4545	-1.10487726e-07
65	0xb729a65b	-1.0111918e-05
66	0xb77675fe	-1.4690215e-05
67	0xb68a26d4	-4.1172407e-06
68	0x383a7a51	4.445977e-05
69	0x373afb49	1.1144971e-05
70	0xb74b1705	-1.21051025e-05
71	0xb723b36f	-9.757335e-06
72	0xb647faad	-2.9799223e-06
73	0xb6bf83c3	-5.7075827e-06
74	0x37a1093c	1.9196996e-05
75	0x327921ec	1.45014205e-08
76	0x333960db	4.316176e-08
77	0x33016a7d	3.0132004e-08
78	0xb2108219	-8.411484e-09
79	0x32cab181	2.3596614e-08
80	0xb80527ba	-3.174667e-05
81	0xb77fec6c	-1.5254231e-05
82	0xb6c0711c	-5.7352136e-06
83	0x378ba7ec	1.6648286e-05
84	0x385de41c	5.290295e-05
85	0x371e41c7	9.432849e-06
86	0x36adc477	5.1786733e-06
87	0x36f5355b	7.3077804e-06
88	0xb7d32d7c	-2.517434e-05
89	0xb7f4be81	-2.9175777e-05
90	0xb64ffada	-3.0991418e-06
91	0x382264c4	3.8717655e-05
92	0x3729a7b9	1.0112236e-05
93	0x37a6c5d5	1.9880865e-05
94	0xb6350a9d	-2.697728e-06
95	0xb4b4b940	-3.36624e-07
96	0x35d0aa21	1.5546722e-06
97	0x3503ee26	4.9147854e-07
98	0x35a16a7f	1.2026429e-06
99	0x352a9673	6.354887e-07
100	0xb71adc40	-9.230396e-06
101	0xb6a30a24	-4.858959e-06
102	0xb55db7f6	-8.2596614e-07
103	0xb5f38361	-1.8143147e-06
104	0x37b2fe13	2.1337566e-05
105	0xb7f13ae2	-2.8756858e-05
106	0xb80ee70e	-3.4070625e-05
107	0x361b48c6	2.313916e-06
108	0x35f3cb58	1.8164092e-06
109	0x3883d950	6.2870444e-05
110	0x37279af6	9.990055e-06
111	0x36d26d56	6.271216e-06
112	0xb5bc3b3a	-1.4024329e-06
113	0x358d9585	1.0548835e-06
114	0xb7880440	-1.6214442e-05
115	0x35233643	6.0801193e-07
116	0xb484f688	-2.476629e-07
117	0x34c4cb22	3.6655643e-07
118	0x35b52260	1.3495555e-06
119	0xb5ac0ea4	-1.281926e-06
120	0xb28bf83e	-1.6294617e-08
121	0x3511a7de	5.426099e-07
122	0x3413a8ae	1.3751807e-07
123	0x34cc6c0b	3.8076573e-07
124	0x33d13fdd	9.7439376e-08
125	0x37d6499e	2.5545069e-05
126	0x37d68844	2.5574242e-05
127	0xb43976fc	-1.7272754e-07
128	0xb5dcb9f0	-1.6445392e-06
129	0xb820eb7f	-3.8366295e-05
130	0x35c9d0a6	1.5036392e-06
131	0x36c402ed	5.841596e-06
132	0xb55cc90e	-8.224896e-07
133	0x36711aec	3.592747e-06
134	0x360ddb62	2.1138335e-06
135	0x340d2d63	1.314816e-07
136	0x34f2b44e	4.5207202e-07
137	0x32dc62d7	2.5656318e-08
138	0x34427939	1.8111758e-07
139	0x33e25bb3	1.0540625e-07
140	0x376aee6d	1.4003e-05
141	0x37917ac0	1.7342507e-05
142	0xb4c886fe	-3.7351123e-07
143	0x37513f73	1.2472144e-05
144	0xb7fd7bcb	-3.0217596e-05
145	0xb6ecaf5c	-7.0537626e-06
146	0xb7ec5a19	-2.8175347e-05
147	0xb73eecff	-1.13800625e-05
148	0x38b06d8a	8.412737e-05
149	0xb7a6131c	-1.979764e-05
150	0xb58dc251	-1.0561872e-06
151	0xb588b9ba	-1.0186843e-06
152	0xb308b1ea	-3.182678e-08
153	0xb59f2bbd	-1.1859153e-06
154	0x3613e005	2.2035103e-06
155	0x367e717c	3.7915006e-06
156	0x37de6042	2.6509286e-05
157	0x36dbfa27	6.55583e-06
158	0xb7efb120	-2.85735e-05
159	0x3625a70c	2.468415e-06
160	0xb6f09aa2	-7.170559e-06
161	0xb65393bb	-3.152744e-06
162	0xb665477e	-3.4165273e-06
163	0x36752af0	3.6532838e-06
164	0x3741af85	1.1544563e-05
165	0xb7f6eb8d	-2.9435172e-05
166	0xb7afb931	-2.0947862e-05
167	0xb680715e	-3.827895e-06
168	0x37408943	1.14760505e-05
169	0x3822eaac	3.8842365e-05
170	0x334cd66e	4.7692474e-08
171	0xb3c700b3	-9.266787e-08
172	0xb1f5642e	-7.1418276e-09
173	0x33d8284e	1.0065615e-07
174	0xb470ab74	-2.2414116e-07
175	0xb6c3f321	-5.839757e-06
176	0xb6bbcfec	-5.5972396e-06
177	0xb604355d	-1.9700594e-06
178	0xb5ad02a5	-1.2890274e-06
179	0x37246929	9.799646e-06
180	0xb7610f78	-1.3414647e-05
181	0xb84416f7	-4.675143e-05
182	0xb59c3a51	-1.1639878e-06
183	0x374c7eeb	1.2188898e-05
184	0x35d42616	1.5806315e-06
185	0x349d6fc3	2.9324846e-07
186	0x36ca518b	6.029562e-06
187	0xb48defc7	-2.6437758e-07
188	0xb69a5f00	-4.600617e-06
189	0xb5292e07	-6.3024385e-07
190	0x3396d0b5	7.022883e-08
191	0x35338473	6.6875435e-07
192	0xb06da51b	-8.6454727e-10
193	0xb3d4acec	-9.9034736e-08
194	0x34d97bd4	4.0509497e-07
195	0x3645a278	2.9449857e-06
196	0x368a5c68	4.123478e-06
197	0x364b36fd	3.0281365e-06
198	0xb7458865	-1.1773872e-05
199	0xb66232de	-3.3706233e-06
200	0x369a971a	4.607148e-06
201	0xb69f352c	-4.7447593e-06
202	0x3470bf41	2.242132e-07
203	0x36ed1879	7.0659994e-06
204	0xb6e8fa2e	-6.9432635e-06
205	0xb7b9d8fe	-2.2154763e-05
206	0xb79b8752	-1.8540453e-05
207	0xb65b51e8	-3.2681219e-06
208	0x38093342	3.2711083e-05
209	0x3855eaa4	5.1001683e-05
210	0xb54a8c55	-7.5455074e-07
211	0xb523b7f1	-6.09899e-07
212	0xb38e6e83	-6.632492e-08
213	0xb52fcea5	-6.549329e-07
214	0x35d9b4ad	1.6220343e-06
215	0x373d9ffe	1.1302529e-05
216	0x3734642b	1.0752158e-05
217	0x350cf43c	5.250947e-07
218	0xb77defe2	-1.5135827e-05
219	0xb7681c9a	-1.3834937e-05
220	0x339e5f6f	7.3748076e-08
221	0x33099244	3.2030826e-08
222	0x348e4811	2.6501996e-07
223	0x311f4874	2.317873e-09
224	0xb35552cc	-4.966823e-08
225	0x369f1405	4.7409e-06
226	0xb632e4fe	-2.6657358e-06
227	0x33c27739	9.0555154e-08
228	0xb560a01e	-8.3679504e-07
229	0xb78dc353	-1.6899465e-05
230	0x37550b4c	1.269842e-05
231	0xb34ca2fc	-4.7645685e-08
232	0x36957356	4.453973e-06
233	0xb76f4d63	-1.4263528e-05
234	0xb7fb96ac	-2.9991694e-05
235	0x34195c88	1.4282898e-07
236	0xb41a93f9	-1.43962e-07
237	0x34bec82b	3.55359e-07
238	0x33c13498	8.9968296e-08
239	0x3438ad22	1.7199321e-07
240	0xb8141e2b	-3.5314046e-05
241	0xb84c4e34	-4.8710222e-05
242	0xb742c70d	-1.1609646e-05
243	0x389239de	6.972601e-05
244	0x38883954	6.4956635e-05
245	0xb7f8579b	-2.9604698e-05
246	0xb84e8887	-4.924138e-05
247	0xb6d1b69a	-6.249943e-06
248	0x37891917	1.6343356e-05
249	0x37fa92d7	2.98707e-05
250	0xb75e368d	-1.3244932e-05
251	0x3645a5f1	2.9451878e-06
252	0x3406f0c6	1.2567315e-07
253	0x373d8072	1.1295184e-05
254	0x37e4fd9f	2.729782e-05
255	0x3380b66d	5.9936475e-08

exp_avg_sq f4 [256, 5]
0	0x3100016c	1.862726e-09
1	0x31ba98ae	5.43067e-09
2	0x311dfab5	2.2989017e-09
3	0x3078f087	9.0563684e-10
4	0x31e227f5	6.5820083e-09
5	0x2f31427b	1.6121675e-10
6	0x2e7257ad	5.51023e-11
7	0x2fbc4fb6	3.425364e-10
8	0x2fb316ec	3.2576197e-10
9	0x300851b3	4.9592613e-10
10	0x2f2e9923	1.5879613e-10
11	0x300b10e8	5.059193e-10
12	0x2f97106a	2.7478403e-10
13	0x2eddb78a	1.00825195e-10
14	0x2e7b3dbc	5.7125624e-11
15	0x313b3c05	2.7246199e-09
16	0x302220e5	5.8982e-10
17	0x3149c26a	2.9359861e-09
18	0x305a0a21	7.932233e-10
19	0x3263633d	1.3235703e-08
20	0x31bf70c2	5.5716507e-09
21	0x3140a607	2.8034053e-09
22	0x330617d7	3.122099e-08
23	0x3109d8de	2.0059399e-09
24	0x30faa7f2	1.8237627e-09
25	0x322e4cde	1.0145611e-08
26	0x32f2139f	2.818143e-08
27	0x328d69c2	1.6462653e-08
28	0x33071d2b	3.1458665e-08
29	0x3160d2e6	3.2716172e-09
30	0x30a0976e	1.1684571e-09
31	0x2f70ef31	2.1912851e-10
32	0x315587d5	3.107279e-09
33	0x3030ba5c	6.429326e-10
34	0x31b477fb	5.2523297e-09
35	0x31eaa213	6.828722e-09
36	0x322d5aa4	1.0090535e-08
37	0x32199d8c	8.941594e-09
38	0x32afe619	2.0477318e-08
39	0x3203f862	7.681679e-09
40	0x3195da0b	4.3612594e-09
41	0x314922fc	2.9269236e-09
42	0x32913094	1.6902312e-08
43	0x3133fb1d	2.619067e-09
44	0x322ba763	9.991569e-09
45	0x32f43605	2.8429904e-08
46	0x3384b189	6.1790224e-08
47	0x3319fcd4	3.5853034e-08
48	0x33a21043	7.546671e-08
49	0x332f76bb	4.0853347e-08
50	0x31323839	2.5934368e-09
51	0x320753f3	7.877122e-09
52	0x311c84fd	2.2776583e-09
53	0x3204c7cb	7.728839e-09
54	0x3155fc97	3.113916e-09
55	0x305310e3	7.678535e-10
56	0x30f1fdd5	1.7607201e-09
57	0x31001ea5	1.864387e-09
58	0x2f532aec	1.9205587e-10
59	0x312399f6	2.3807138e-09
60	0x2de82cf2	2.6395306e-11
61	0x2e0e080a	3.2294202e-11
62	0x2ddebd60	2.5322577e-11
63	0x2e898b14	6.254744e-11
64	0x2e0031c0	2.9148017e-11
65	0x3186ca87	3.922938e-09
66	0x315c6ad3	3.2074936e-09
67	0x31895b70	3.99762e-09
68	0x32a1ef1c	1.8851601e-08
69	0x319737e5	4.401033e-09
70	0x30d0b856	1.5186383e-09
71	0x31243031	2.3892535e-09
72	0x31865df3	3.910594e-09
73	0x3026af79	6.063981e-10
74	0x31d02271	6.0575123e-09
75	0x2c670669	3.2830633e-12
76	0x2ba4ec6f	1.1718524e-12
77	0x2d810e1c	1.4671868e-11
78	0x2c81ca75	3.6888778e-12
79	0x2c139cfb	2.0977098e-12
80	0x31b9707f	5.396998e-09
81	0x31867ba6	3.9139705e-09
82	0x321219ac	8.504156e-09
83	0x3133a4c5	2.614159e-09
84	0x32fd57d8	2.9493023e-08
85	0x317551d5	3.5698708e-09
86	0x307efd56	9.2764674e-10
87	0x322d9f22	1.0106108e-08
88	0x323a31f2	1.0837981e-08
89	0x31d97602	6.328947e-09
90	0x31d9b39b	6.33595e-09
91	0x32b66f5e	2.1238233e-08
92	0x3283cf30	1.5344625e-08
93	0x31466dc2	2.8875182e-09
94	0x311fb5fa	2.3240987e-09
95	0x2e15fad3	3.4101454e-11
96	0x2ed28d4e	9.574795e-11
97	0x2e988a52	6.9367304e-11
98	0x2db10230	2.0123542e-11
99	0x2e292f14	3.8467965e-11
100	0x30898153	1.0004818e-09
101	0x309f4da5	1.159084e-09
102	0x3078108f	9.0245406e-10
103	0x2efcca8e	1.1495614e-10
104	0x31c257b9	5.656116e-09
105	0x31c62abe	5.7674177e-09
106	0x32a3e96e	1.9081849e-08
107	0x2ff300c8	4.4201998e-10
108	0x2fbf7e8c	3.4832615e-10
109	0x32e6ca72	2.6867585e-08
110	0x30306ae6	6.418034e-10
111	0x30613f53	8.194451e-10
112	0x301ca104	5.6981286e-10
113	0x2e5664bc	4.8747437e-11
114	0x318259a7	3.7936903e-09
115	0x2d793533	1.4165824e-11
116	0x2cac83ce	4.9031673e-12
117	0x2d90af4e	1.6448756e-11
118	0x2e6dcfd9	5.4072167e-11
119	0x2db10ebd	2.0129115e-11
120	0x2d314113	1.00757345e-11
121	0x2d932972	1.673037e-11
122	0x2d0532db	7.571467e-12
123	0x2d27e93d	9.54464e-12
124	0x2de718ab	2.6272614e-11
125	0x314eb86f	3.0081784e-09
126	0x320cc2fb	8.193406e-09
127	0x2f810e39	2.347507e-10
128	0x2f9cb947	2.8507882e-10
129	0x328cbcf6	1.6384075e-08
130	0x2f840eeb	2.402126e-10
131	0x305df51d	8.074766e-10
132	0x30241eaa	5.970643e-10
133	0x2fe6ac58	4.1959214e-10
134	0x2e26ab10	3.7895964e-11
135	0x2d6e87a6	1.3558854e-11
136	0x2c4542c2	2.8032442e-12
137	0x2e30ed28	4.0228404e-11
138	0x2e496a98	4.5796783e-11
139	0x2db92588	2.1048732e-11
140	0x30daf1de	1.593033e-09
141	0x31b3c7a5	5.2322826e-09
142	0x2f96bfda	2.742116e-10
143	0x309dab06	1.1471861e-09
144	0x31d3d178	6.164722e-09
145	0x326783b0	1.3475912e-08
146	0x322e39ee	1.0141305e-08
147	0x32bbf8d6	2.1882823e-08
148	0x336f6183	5.573521e-08
149	0x3188bf53	3.979872e-09
150	0x2f52a85e	1.9159205e-10
151	0x2ff1f22b	4.4009715e-10
152	0x2fdec6dd	4.0522866e-10
153	0x2f6fa57f	2.179572e-10
154	0x3007b142	4.936461e-10
155	0x31889b77	3.9757952e-09
156	0x323acf6b	1.0873786e-08
157	0x31f73f94	7.195874e-09
158	0x325041ca	1.2122152e-08
159	0x3049376a	7.320212e-10
160	0x30990ce5	1.113588e-09
161	0x2fc56352	3.5904663e-10
162	0x31c3369a	5.6814544e-09
163	0x2fa35d50	2.971583e-10
164	0x313d94e5	2.7587757e-09
165	0x31a2452a	4.7226836e-09
166	0x31e62083	6.697577e-09
167	0x319b2be1	4.516082e-09
168	0x30e82a26	1.6892201e-09
169	0x32c3c0bb	2.2788631e-08
170	0x2c96a866	4.2819524e-12
171	0x2c9eaae0	4.509601e-12
172	0x2cc1d207	5.5087076e-12
173	0x2cb91613	5.260467e-12
174	0x2d69d614	1.32920515e-11
175	0x303ee21a	6.9442907e-10
176	0x309e2274	1.1505805e-09
177	0x31379afc	2.6718103e-09
178	0x2e48ad11	4.562845e-11
179	0x3103b6ce	1.9166921e-09
180	0x31a926d2	4.9229607e-09
181	0x33017d98	3.014938e-08
182	0x30c1d470	1.4102977e-09
183	0x30f2b510	1.7659278e-09
184	0x315b2f6a	3.1895646e-09
185	0x2fbe25f7	3.4587774e-10
186	0x30cc5788	1.4867831e-09
187	0x2e050cdc	3.025212e-11
188	0x30992752	1.1143391e-09
189	0x2ea18b6e	7.3462e-11
190	0x2e19cd3b	3.4970454e-11
191	0x2f213db3	1.4664785e-10
192	0x2e51a074	4.766361e-11
193	0x2d794b9d	1.4170801e-11
194	0x2d839439	1.49588e-11
195	0x308af7f1	1.0111291e-09
196	0x303e95a0	6.933423e-10
197	0x313cd086	2.7476132e-09
198	0x318206b9	3.7842622e-09
199	0x30890f86	9.972474e-10
200	0x2ff16f01	4.3916518e-10
201	0x305fc039	8.140009e-10
202	0x2f0717d7	1.2286648e-10
203	0x30ae2a11	1.2672122e-09
204	0x308af2f0	1.0109868e-09
205	0x31ad57da	5.0449502e-09
206	0x31c5db3e	5.7583796e-09
207	0x317f73dd	3.7173244e-09
208	0x324dadee	1.19721175e-08
209	0x32aadedb	1.9891948e-08
210	0x2f16936b	1.3694794e-10
211	0x2f166183	1.3677064e-10
212	0x3041e9c4	7.054519e-10
213	0x2dd332ee	2.401054e-11
214	0x2f86eed0	2.4544144e-10
215	0x30e26a1d	1.6473823e-09
216	0x311dadb5	2.2945248e-09
217	0x2fcf13ba	3.7667097e-10
218	0x319209aa	4.250258e-09
219	0x31b6709a	5.3096985e-09
220	0x2d516e0e	1.1904712e-11
221	0x2c81ef76	3.692986e-12
222	0x2eb54873	8.2437966e-11
223	0x2ca9f5c5	4.830555e-12
224	0x2c15b352	2.1273716e-12
225	0x301a131e	5.605204e-10
226	0x2f58cc7f	1.9717737e-10
227	0x2f8ec21b	2.596757e-10
228	0x2fc417ba	3.566905e-10
229	0x31469b03	2.8900906e-09
230	0x310c1913	2.0386934e-09
231	0x2eff9661	1.162277e-10
232	0x3189221e	3.9911034e-09
233	0x318eeb82	4.159518e-09
234	0x321d772e	9.165701e-09
235	0x2cdc49c7	6.260967e-12
236	0x2c25a6de	2.354054e-12
237	0x2e004c16	2.917141e-11
238	0x2c89273c	3.89813e-12
239	0x2c667da8	3.275472e-12
240	0x32850de2	1.5489551e-08
241	0x32e87d6c	2.706539e-08
242	0x32c77462	2.3219574e-08
243	0x33349d96	4.205284e-08
244	0x3312f561	3.4216445e-08
245	0x320ed295	8.313369e-09
246	0x330c1c96	3.262229e-08
247	0x321c82c6	9.1101295e-09
248	0x315c567e	3.2063379e-09
249	0x32a7267f	1.9458865e-08
250	0x30c0297b	1.3981628e-09
251	0x2f0b3509	1.2660818e-10
252	0x2f5f5711	2.0312664e-10
253	0x30d2f4c2	1.5349075e-09
254	0x3224d534	9.594533e-09
255	0x2c2d03b6	2.4586839e-12

exp_avg f4 [256, 64]
0	0x00000000	0.0
1	0x00000000	0.0
2	0x00000000	0.0
3	0x00000000	0.0
4	0x00000000	0.0
5	0x00000000	0.0
6	0x00000000	0.0
7	0x00000000	0.0
8	0x00000000	0.0
9	0x00000000	0.0
10	0x00000000	0.0
11	0x00000000	0.0
12	0x00000000	0.0
13	0x00000000	0.0
14	0x00000000	0.0
15	0x00000000	0.0
16	0x00000000	0.0
17	0x00000000	0.0
18	0x00000000	0.0
19	0x00000000	0.0
20	0x00000000	0.0
21	0x00000000	0.0
22	0x00000000	0.0
23	0x00000000	0.0
24	0x00000000	0.0
25	0x00000000	0.0
26	0x00000000	0.0
27	0x00000000	0.0
28	0x00000000	0.0
29	0x00000000	0.0
30	0x00000000	0.0
31	0x00000000	0.0
32	0x00000000	0.0
33	0x00000000	0.0
34	0x00000000	0.0
35	0x00000000	0.0
36	0x00000000	0.0
37	0x00000000	0.0
38	0x00000000	0.0
39	0x00000000	0.0
40	0x00000000	0.0
41	0x00000000	0.0
42	0x00000000	0.0
43	0x00000000	0.0
44	0x00000000	0.0
45	0x00000000	0.0
46	0x00000000	0.0
47	0x00000000	0.0
48	0x00000000	0.0
49	0x00000000	0.0
50	0x00000000	0.0
51	0x00000000	0.0
52	0x00000000	0.0
53	0x00000000	0.0
54	0x00000000	0.0
55	0x00000000	0.0
56	0x00000000	0.0
57	0x00000000	0.0
58	0x00000000	0.0
59	0x00000000	0.0
60	0x00000000	0.0
61	0x00000000	0.0
62	0x00000000	0.0
63	0x00000000	0.0
64	0x00000000	0.0
65	0x00000000	0.0
66	0x00000000	0.0
67	0x00000000	0.0
68	0x00000000	0.0
69	0x00000000	0.0
70	0x00000000	0.0
71	0x00000000	0.0
72	0x00000000	0.0
73	0x00000000	0.0
74	0x00000000	0.0
75	0x00000000	0.0
76	0x00000000	0.0
77	0x00000000	0.0
78	0x00000000	0.0
79	0x00000000	0.0
80	0x00000000	0.0
81	0x00000000	0.0
82	0x00000000	0.0
83	0x00000000	0.0
84	0x00000000	0.0
85	0x00000000	0.0
86	0x00000000	0.0
87	0x00000000	0.0
88	0x00000000	0.0
89	0x00000000	0.0
90	0x00000000	0.0
91	0x00000000	0.0
92	0x00000000	0.0
93	0x00000000	0.0
94	0x00000000	0.0
95	0x00000000	0.0
96	0x00000000	0.0
97	0x00000000	0.0
98	0x00000000	0.0
99	0x00000000	0.0
100	0x00000000	0.0
101	0x00000000	0.0
102	0x00000000	0.0
103	0x00000000	0.0
104	0x00000000	0.0
105	0x00000000	0.0
106	0x00000000	0.0
107	0x00000000	0.0
108	0x00000000	0.0
109	0x00000000	0.0
110	0x00000000	0.0
111	0x00000000	0.0
112	0x00000000	0.0
113	0x00000000	0.0
114	0x00000000	0.0
115	0x00000000	0.0
116	0x00000000	0.0
117	0x00000000	0.0
118	0x00000000	0.0
119	0x00000000	0.0
120	0x00000000	0.0
121	0x00000000	0.0
122	0x00000000	0.0
123	0x00000000	0.0
124	0x00000000	0.0
125	0x00000000	0.0
126	0x00000000	0.0
127	0x00000000	0.0
128	0x00000000	0.0
129	0x00000000	0.0
130	0x00000000	0.0
131	0x00000000	0.0
132	0x00000000	0.0
133	0x00000000	0.0
134	0x00000000	0.0
135	0x00000000	0.0
136	0x00000000	0.0
137	0x00000000	0.0
138	0x00000000	0.0
139	0x00000000	0.0
140	0x00000000	0.0
141	0x00000000	0.0
142	0x00000000	0.0
143	0x00000000	0.0
144	0x00000000	0.0
145	0x00000000	0.0
146	0x00000000	0.0
147	0x00000000	0.0
148	0x00000000	0.0
149	0x00000000	0.0
150	0x00000000	0.0
151	0x00000000	0.0
152	0x00000000	0.0
153	0x00000000	0.0
154	0x00000000	0.0
155	0x00000000	0.0
156	0x00000000	0.0
157	0x00000000	0.0
158	0x00000000	0.0
159	0x00000000	0.0
160	0x00000000	0.0
161	0x00000000	0.0
162	0x00000000	0.0
163	0x00000000	0.0
164	0x00000000	0.0
165	0x00000000	0.0
166	0x00000000	0.0
167	0x00000000	0.0
168	0x00000000	0.0
169	0x00000000	0.0
170	0x00000000	0.0
171	0x00000000	0.0
172	0x00000000	0.0
173	0x00000000	0.0
174	0x00000000	0.0
175	0x00000000	0.0
176	0x00000000	0.0
177	0x00000000	0.0
178	0x00000000	0.0
179	0x00000000	0.0
180	0x00000000	0.0
181	0x00000000	0.0
182	0x00000000	0.0
183	0x00000000	0.0
184	0x00000000	0.0
185	0x00000000	0.0
186	0x00000000	0.0
187	0x00000000	0.0
188	0x00000000	0.0
189	0x00000000	0.0
190	0x00000000	0.0
191	0x00000000	0.0
192	0x00000000	0.0
193	0x00000000	0.0
194	0x00000000	0.0
195	0x00000000	0.0
196	0x00000000	0.0
197	0x00000000	0.0
198	0x00000000	0.0
199	0x00000000	0.0
200	0x00000000	0.0
201	0x00000000	0.0
202	0x00000000	0.0
203	0x00000000	0.0
204	0x00000000	0.0
205	0x00000000	0.0
206	0x00000000	0.0
207	0x00000000	0.0
208	0x00000000	0.0
209	0x00000000	0.0
210	0x00000000	0.0
211	0x00000000	0.0
212	0x00000000	0.0
213	0x00000000	0.0
214	0x00000000	0.0
215	0x00000000	0.0
216	0x00000000	0.0
217	0x00000000	0.0
218	0x00000000	0.0
219	0x00000000	0.0
220	0x00000000	0.0
221	0x00000000	0.0
222	0x00000000	0.0
223	0x00000000	0.0
224	0x00000000	0.0
225	0x00000000	0.0
226	0x00000000	0.0
227	0x00000000	0.0
228	0x00000000	0.0
229	0x00000000	0.0
230	0x00000000	0.0
231	0x00000000	0.0
232	0x00000000	0.0
233	0x00000000	0.0
234	0x00000000	0.0
235	0x00000000	0.0
236	0x00000000	0.0
237	0x00000000	0.0
238	0x00000000	0.0
239	0x00000000	0.0
240	0x00000000	0.0
241	0x00000000	0.0
242	0x00000000	0.0
243	0x00000000	0.0
244	0x00000000	0.0
245	0x00000000	0.0
246	0x00000000	0.0
247	0x00000000	0.0
248	0x00000000	0.0
249	0x00000000	0.0
250	0x00000000	0.0
251	0x00000000	0.0
252	0x00000000	0.0
253	0x00000000	0.0
254	0x00000000	0.0
255	0x00000000	0.0
