models/test_model.pth (torch, 68277 bytes, 15 tensors)

lstm.weight_ih_l0 f4 [128, 5]
00000000: 3558 15be 551f 13be ffd3 36bd bf35 e43d
00000010: 5fec 51ba f695 883d 10b5 d2bd 42af ef3d
00000020: 2dc9 183e 69cf f33d ebfd cdbd b86a 76bd
00000030: bcc2 9cbd 5c48 353e 6558 883d 2abc a9bd
00000040: 5004 f9bd e0bd 263d 17af c3bc 16c7 1fbe
00000050: e8af 38bd 5311 0c3e b06f 8b3d b506 f2bc
00000060: 4eb6 b5bd 3a08 2d3e e640 093e 7631 3d3d
00000070: 027e ae3d 07c8 ebbd d18b fd3d 69d5 04be
00000080: 4991 213e a90d 15be 24e8 c3bd 8c46 b0bd
00000090: 4b6b d43d e6df d7bd 6fdd a8bc ae77 053d
000000a0: 133a eebd ff1f cd3b 7419 c23d 13e7 5d3d
000000b0: 5c2c 68bd fbc2 1a3e c130 ee3d e2df 333d
000000c0: 183b 9abc 51d5 f43d e21b 30bc fc3e ef3d
000000d0: 9851 babc e60e 23be d6b3 343e eca5 1d3c
000000e0: f6d1 103e 6d1f 283d 155f 1ebe 7aaa 173d
000000f0: a1ff f5bd 426e fe3d 7ada f93c 389b 213e
00000100: ab3d 183e 5a71 173d bc2e 953c 06e1 02bc
00000110: 6437 ab3d 16ee 13be ac8f 0d3e 2baf cabd
00000120: 139d ef3d 5631 0fbe 6b86 21be da40 833c
00000130: 8cd8 b5bd b951 cfbc 7c4f ec3d fb02 ae3d
00000140: 3ffd 303d 6f07 dcbd 7004 eabd 2b98 51bd
00000150: 28c7 17bd 282f 0a3d 4424 a73d a980 a9bd
00000160: 7554 e43c 9947 74bd 6a8f 17bd 8847 0dbd
00000170: 68ea ddbd f3f7 3cbd 3d43 1f3e 2746 173e
00000180: cdef 0f3e 7828 1bbe aa17 293e dd26 17be
00000190: 31af 84bd 0e4f ffbd 3bb4 0f3e 1765 febc
000001a0: 753a 2dbe b415 b73d 2a54 e9bc cb92 acbd
000001b0: 90d9 24bd b369 ed3d 2e09 2bbd 5967 aabc
000001c0: ba3e 8abd 2857 dfbc fa8e 013e 1ac7 143e
000001d0: 3924 a4bc 6af7 0f3e dd6f 723a 52bd a3bd
000001e0: f915 7e3c 729f 143e dd3c 7dbd 5310 053e
000001f0: 0e25 21be 814e a6bc e0c0 0a3e d991 553d
00000200: e404 973c 0fb8 c43d 36d3 893c 6df5 e9bd
00000210: 3b9b c83d bfd0 a5ba f70d aabd bdee 803d
00000220: 8af0 bcbd 35a0 0bbe 3d38 41bd bc63 0abe
00000230: fa0c c83d 4241 f83d 4ccc 3ebb 79e9 e83c
00000240: d25a e4bc d8d9 2f3e 4695 3e3d 84c7 c8bd
00000250: 8ca3 2cbe 84c3 87bc 99fe a5bd b897 e6bd
00000260: 06ac a13d 7a03 2ebe 829e e8bd c49d 703d
00000270: 5f29 a1bb 24c8 d1bc 3d79 c6bd 2bf9 df3d
00000280: 8d80 973d 807c 1f3e 22b9 2abe 9635 203e
00000290: 7b6c 7b3c c9db ea3d 5276 fabb 887a 453d
000002a0: 4fe3 2dbe 2a84 b5bd 51e9 cbbc 09da 1b3e
000002b0: f7bf c43d 869c 183e d152 a3bd 010d 0abe
000002c0: 6f3d 233d f84f 32be 3c10 1e3e 12e3 4ebd
000002d0: e1b2 453d c28a 2fbc a166 0a3e d8f5 1fbe
000002e0: e79e 933d 1404 193d da52 5dbd d40e aa3d
000002f0: c7a6 213e 1f78 f2bd d01d 343c 7cdd f7bd
00000300: ae7b f63d 81b8 c9bd dfc1 d63d e959 e4bd
00000310: 9647 08bb c4f9 4e3d 19f8 32bd e61c 903d
00000320: 279d 1b3e 073b 013d 538f e5bd 378f 82bd
00000330: 360e 86bd 1502 8a3d 7721 c8bc 9a00 9fba
00000340: 6bd1 34bc b940 103e 8bd8 183e bbbc cebd
00000350: 9a4e e3bc 3051 9d3d cae3 a8bd 480e 113e
00000360: 015d af3d f037 b3bd cd6f 8bbd 2889 ce3d
00000370: cb64 bc3c d8ef 84bd a0a1 77bc 1fc0 143e
00000380: 7e26 e1bd cbed 023e e712 223b 9f5f debc
00000390: bd9a 303e 7875 ca3d 64d2 f3bc 0964 d6bb
000003a0: e545 913d 90b6 68bd b000 053e 7d12 1d3d
000003b0: 2a79 9fbc d0aa 67bc cc99 973d 0c5f bebd
000003c0: a23c b33d 3223 8e3d bf4e 153c cc1f 2d3d
000003d0: 9145 053e ba0b edbd f5a9 34be 0611 d53d
000003e0: cdd6 bcbd f7b6 fc3b 8aa9 a23d 9409 0dbe
000003f0: c7bf 6c3d a110 48bc c8cc c03d 3a96 5d3b
-0.1458443 -0.14367421 -0.04463577 0.11143064 -0.00080079393 0.06669228 -0.10288441 0.1170335
0.14920492 0.11904795 -0.10058197 -0.06016037 -0.0765433 0.17703384 0.06657485 -0.082878426
-0.12159026 0.040708423 -0.0238872 -0.15603289 -0.045089632 0.13678484 0.06808412 -0.029544214
-0.088726625 0.1689767 0.13403663 0.046189748 0.08520128 -0.115127616 0.123801835 -0.12972035
0.15778078 -0.14555992 -0.09565762 -0.08607206 0.10372027 -0.10540752 -0.0206134 0.03258484
-0.116321705 0.0062599177 0.09477511 0.054175448 -0.05668293 0.15113442 0.11630393 0.043914683
-0.018827006 0.119547494 -0.010748835 0.11681935 -0.022743985 -0.15923652 0.17646727 0.009622078
0.14142594 0.041045595 -0.15465958 0.037027813 -0.12011648 0.12423374 0.030499686 0.15781868
0.14867274 0.036973335 0.018210761 -0.00798822 0.08360174 -0.14446291 0.13824338 -0.09896692
0.116998814 -0.13983664 -0.15773933 0.016022135 -0.08879194 -0.025307523 0.11538598 0.08496662
0.043210264 -0.10743605 -0.11426628 -0.05117051 -0.037055165 0.033736378 0.08161214 -0.08276493
0.027872304 -0.059638593 -0.037002005 -0.034492046 -0.10835725 -0.0461349 0.15552993 0.14772855
0.1405632 -0.15152156 0.16512933 -0.14760919 -0.064787276 -0.1246625 0.14033596 -0.031054063
-0.16916831 0.089396864 -0.028482515 -0.08426436 -0.040246546 0.11592426 -0.0417568 -0.020801233
-0.067502454 -0.027263239 0.12652197 0.14529076 -0.020036804 0.14059225 0.00092482363 -0.07995094
0.015508168 0.14513949 -0.061825622 0.12994508 -0.15736791 -0.020301105 0.13550138 0.052141044
0.01843495 0.09605419 0.016824346 -0.114237644 0.09795233 -0.0012650712 -0.08303445 0.06295536
-0.09225567 -0.13635333 -0.047172774 -0.13514608 0.097681 0.12121822 -0.002911347 0.028431641
-0.027875338 0.17172945 0.046529077 -0.098036796 -0.16859263 -0.016572721 -0.08105201 -0.11259407
0.07894139 -0.16993514 -0.11358358 0.058744207 -0.004918262 -0.02560813 -0.09691093 0.10936197
0.07397566 0.15574837 -0.16672185 0.15645441 0.015345688 0.11467702 -0.0076434994 0.048212558
-0.16981243 -0.08863099 -0.024891527 0.15219893 0.09606927 0.14903459 -0.0797478 -0.13481523
0.03985351 -0.17413318 0.1543588 -0.05050952 0.048266295 -0.010714235 0.13515712 -0.15621126
0.072080426 0.037357405 -0.05403409 0.083036095 0.15786277 -0.118393175 0.010993436 -0.12102792
0.12035309 -0.098496445 0.10486197 -0.111499615 -0.0020794622 0.050531164 -0.043693636 0.07036762
0.15196668 0.031550433 -0.112089776 -0.06374972 -0.06545679 0.06738678 -0.02443002 -0.0012130917
-0.011036257 0.1408719 0.14926355 -0.10094591 -0.027747441 0.07681501 -0.08246572 0.14165604
0.08562661 -0.087509036 -0.06808434 0.10084754 0.02299728 -0.06491059 -0.015114218 0.14526413
-0.1099367 0.12786023 0.0024730505 -0.027145205 0.17246528 0.09885687 -0.029763408 -0.006542687
0.070934094 -0.05681473 0.12988544 0.03834771 -0.019466955 -0.014139846 0.07402381 -0.092954725
0.08751799 0.06940307 0.009113013 0.042266652 0.13014819 -0.11574502 -0.17642958 0.104036376
-0.092206575 0.007712241 0.07942493 -0.13773185 0.05780008 -0.012210996 0.09414059 0.0033811466

lstm.weight_hh_l0 f4 [128, 32]
00000000: 0a95 473d fe98 b2bc f5a3 79bd 06ec 1dbe
00000010: ea83 1fbe fc01 003e daa9 053e 29ca 4bbc
00000020: f624 1c3e 607c c33c 1c7e ebbc 2d9b 223e
00000030: 8c18 f03c ec77 c1bd d7e5 1abe 7a12 1bbc
00000040: 4f85 a93c 50bc 10be f97e ef3c 5efa 273d
00000050: 1573 d03d 95f2 133e 12ee 11be 92b2 233d
00000060: 3a9f bcbd 42d1 1c3e 74fc f13d d6cf 11bd
00000070: 1a08 053e 0da8 e5bd 7a5f f73d c160 97bd
00000080: 1362 c03c 90f5 9abd 4381 d6bd 4a60 123e
00000090: 9c5c a2bd 9ef1 2d3e 4c58 0a3e f490 98bd
000000a0: a08c 0b3c 15ac 13be b66e dabb d9ae 2dbe
000000b0: 17d6 a8bd 12fb 093e e35d f53d d4e1 f9bb
000000c0: 4fdd b43d df3a 063d ce3e 123e e4ea 2d3d
000000d0: 02b9 bb3c d8fd 0a3e 4692 e13d a5b0 133c
000000e0: 8642 14be 4758 8dbd 8765 d23d 62f1 f9bd
000000f0: 6511 f33d eccb dbbd 4474 913d 9265 d03d
00000100: fe6f e03d 02d3 263e 9b8f cf3d ccfa d13d
00000110: 68d5 9f3d a5ae 263d e636 0dbe 00e6 2fbe
00000120: 6b4e 5c3d f7a9 f13d 104d 723d 87d5 e5bd
00000130: 66bc 35bd 10a9 423d 8905 b5bd 9cbf 3cbc
00000140: 8a38 d8bc 5778 2dbd 0120 a9bd 14ab 01be
00000150: 9206 d9bc 0411 253e 5a88 7e3d 716e 003e
00000160: 819f c2bd b631 e7bd 69df 313e 8cd1 0c3e
00000170: 6070 00bd 081b e6bc 3435 e03d ad8f b5bd
00000180: 77e2 30be 06e1 3c3d 8b70 973d 724a a03d
00000190: e175 11bd 570d 193d 2bb5 08bd ab8b c3bd
000001a0: 2c37 e0bd 3c3d a13d c1dd d53d 9999 8f3c
000001b0: ed0b c7bc 0a1a 0abe d9a6 43bb e059 d3bd
000001c0: fbc0 92bd e538 36bb 3ca9 223e 422d a83c
000001d0: 386f b63d 474e b5bd c5e5 023e 80f9 fcbd
000001e0: efd7 a2bd 889f 253e f676 c13d 9229 b8bd
000001f0: 79b1 a2bd 3a9f 163e 0bc8 3ebc fe99 853d
00000200: 33e3 9c3d c2a0 003e ac38 e9bd db8d 283e
00000210: 98e6 23be adfb fc3d 21a4 82bd da17 16bd
00000220: e9c2 88bd 3c52 aabd b9be e33b f899 05be
00000230: ef90 e13d 9298 11bc 1368 d7bb f2ca 343e
00000240: 5fd5 2cbd 2dc0 57bd 9942 253e 4a4c 7fbd
00000250: cb12 09bd 32f4 203d 4c07 b03d cd60 c3bd
00000260: 2208 21be d37b c73d 5609 333c 4f19 fbbd
00000270: 7df3 d2bd 7fa8 21be 5946 8dbd 42cf 053d
00000280: 0898 2cbd d15d f139 d4ec 063e 2c14 923d
00000290: c816 bbbd 851f 5d3c c194 ec3d 08e2 0c3e
000002a0: ca31 5e3b f972 52bd fc4c 193e cce5 85bc
000002b0: e473 153d 9aec a7bd e109 14be 4d43 1f3e
000002c0: 33db b63d a6c1 14be 8a0e ccbd e782 0ebe
000002d0: 8a7f a5bb eb46 fb3d 539c 1f3e 8a7f e6bd
000002e0: 2077 8fbc 04c9 a2bd 189d cdbd 4f22 2abd
000002f0: ec68 45bb 2207 23be 7837 30bd a458 1d3e
00000300: 46b4 b4bd f8b2 b83d 6169 1dbe 08d6 83bb
00000310: cf2e 053e 007b 01be 251d f23d b091 243e
00000320: 3e0c fc3d a402 0dbe 2b14 a3bd bff2 b3bd
00000330: 2f4a c3bd 1b87 b4bd 0c0e e0bd b00b 033d
00000340: f41a 713d eb29 dd3d 5954 8c3d ee06 c33d
00000350: da5e e33d 1403 2b3d e248 623d 80ad 5c3d
00000360: 7b22 b33d 9d3f cd3d 0878 293e f4a1 0b3e
00000370: 04e0 e43d 25cb c9bd aab8 1d3e 3337 8d3d
00000380: 2076 213d 8ec7 d33d fd4d c4bd b265 203e
00000390: e74b 08be ed4f 33be b975 33be d36e 043e
000003a0: e1a7 023e 3461 463d 9515 583d ade1 03be
000003b0: 4bf7 90bd eea0 bebc 5a38 9bbd faff 0d3e
000003c0: c3c7 7c3c 1378 0abe 7792 c73d ba98 2cbe
000003d0: 32bf 23be f75d f73c 4b45 d7bd e473 95bd
000003e0: 8d46 1ebe 2ca2 16be 37d3 0e3e b01f a6bd
000003f0: 2ec1 16bc ec80 81bd bc08 e63d ad78 6bbd
0.04872612 -0.021801468 -0.060947377 -0.15422067 -0.15577665 0.12500757 0.13053074 -0.012438335
0.15248474 0.023863018 -0.028746657 0.15879507 0.02930858 -0.094467014 -0.1512674 -0.009464854
0.02069345 -0.14134336 0.02923535 0.041010253 0.101782 0.14448006 -0.14250973 0.03996522
-0.092100576 0.153142 0.1181573 -0.0355986 0.12991372 -0.11213694 0.120787576 -0.07391501
0.023484265 -0.075663686 -0.104738735 0.14294544 -0.0792782 0.16986701 0.13510245 -0.074495226
0.008517414 -0.14421113 -0.00666603 -0.1696123 -0.082439594 0.13474682 0.11980798 -0.0076257978
0.08831274 0.032770988 0.1428177 0.042460337 0.022915367 0.13573396 0.110142276 0.009014283
-0.14478502 -0.06901603 0.10273271 -0.12204243 0.11868552 -0.107322544 0.07102254 0.10175623
0.10958861 0.1629143 0.101348124 0.10252914 0.07804376 0.040693898 -0.13790473 -0.17177582
0.053785723 0.11799996 0.059155524 -0.11222368 -0.044369124 0.04752451 -0.08838946 -0.011520293
-0.026394147 -0.042351093 -0.082580574 -0.12662917 -0.02649239 0.16119772 0.062141754 0.1254213
-0.09503079 -0.112887785 0.1737038 0.13751811 -0.03135717 -0.028089061 0.10947648 -0.088652946
-0.1727389 0.046113037 0.07394513 0.07826699 -0.03551281 0.037366237 -0.0333759 -0.09548124
-0.10948023 0.07873008 0.10442687 0.017529296 -0.024297679 -0.13486496 -0.0029854088 -0.10319877
-0.07165714 -0.0027804908 0.1588487 0.020529393 0.08907932 -0.08852821 0.12782963 -0.12352276
-0.07951342 0.16174138 0.09446518 -0.08992304 -0.079440065 0.14709178 -0.011644374 0.06523512
0.07660522 0.12561324 -0.113877624 0.16460364 -0.16005933 0.12352691 -0.06378961 -0.03664384
-0.06677801 -0.08316466 0.006950226 -0.13047016 0.11013972 -0.008886473 -0.006573686 0.17655542
-0.042195674 -0.052673507 0.16138686 -0.062328614 -0.033465188 0.039295383 0.08595142 -0.09539948
-0.15725759 0.097404145 0.010927519 -0.122606866 -0.10300348 -0.15786932 -0.068981834 0.03266836
-0.042137176 0.00046037 0.1317628 0.07132754 -0.091352046 0.013496284 0.1155181 0.13758099
0.0033904188 -0.051379178 0.14970773 -0.016344927 0.036487475 -0.08199425 -0.14456894 0.15553017
0.08928528 -0.14526996 -0.099637106 -0.13917123 -0.005050604 0.12269386 0.15586977 -0.11254795
-0.017512858 -0.07948497 -0.10039729 -0.041536625 -0.0030122353 -0.1592069 -0.04302165 0.15365845
-0.08823447 0.090185106 -0.1537223 -0.0040233172 0.13006137 -0.12644577 0.11821965 0.160712
0.123070225 -0.13770539 -0.07962831 -0.087865345 -0.09535634 -0.08814832 -0.10940179 0.031993568
0.058863595 0.10799011 0.068520255 0.09522806 0.11102076 0.041750982 0.055245288 0.0538764
0.08746811 0.10021899 0.16549695 0.13635999 0.1117554 -0.098532 0.15402475 0.06895294
0.039419293 0.103407964 -0.095851876 0.15663794 -0.13310204 -0.17510958 -0.17525376 0.12932901
0.12759353 0.048432544 0.052754957 -0.12879057 -0.070784174 -0.023270097 -0.075791076 0.13867179
0.015428486 -0.13522367 0.09744733 -0.16855136 -0.15990904 0.030196173 -0.105112635 -0.07297495
-0.154566 -0.14710301 0.1394776 -0.08111513 -0.009201331 -0.06323418 0.11232135 -0.057488132

lstm.bias_ih_l0 f4 [128]
00000000: eb16 35bc 2f56 28be e935 b03d bea0 b33c
00000010: 9c1c 55bd 6162 ab3b 3909 0e3d d2f0 aebc
00000020: deab 0b3e d83d c33d b5e6 c93d bd85 06bd
00000030: 3210 5a3d 4bfc 1dbe 09c9 3b3e 2bd7 e73c
00000040: d0ef 5e3c 82d3 9ebc 4094 ccbb 5045 7d3c
00000050: b3c4 4bbd c5e1 123e 8a82 1ebe 2d65 413d
00000060: 7a1c e73d d69e 7ebb 8a6e 2a3e bc83 133e
00000070: 279b 5ebd 313c b9bd 5fda 0cbd 8f94 dc3d
00000080: 3eb0 98bd daae 9ebd eecd 0d3e 98cf 13be
00000090: 6dc8 8c3d e545 39bb 3856 b83d 9057 80bd
000000a0: f11d 463a c3c0 7fbd c87d cd3c f98f 26bd
000000b0: 03cd e83d 264b 2e3e 607a 8fbd 490c c63d
000000c0: b4b9 233e 0895 e43d 9692 1dbd 814b 09be
000000d0: a1ce 85bd b49e 86bd 986f 82bd 1dde 9bbd
000000e0: 6a74 ba3d ded7 173d 6e20 00be cc8c 8c3d
000000f0: 8fae 293e 3cc9 27be b6d6 5c3d e370 d83a
00000100: be30 083e 6e37 29bd caaf e6bd e4ef 5bbd
00000110: 8a19 30be 4c4d 903d 4179 18be d6fd 48bd
00000120: ff67 a1bd af0b 11be 6c47 e63b 7609 a83c
00000130: 24cd dabd 3f52 383e b523 273e b84b dfbc
00000140: 451d b5bd 7d8f a5bd 2409 38be c545 cbbc
00000150: ad31 e0bb 04e0 29bd 952e 633d 546c 97bd
00000160: 951b d839 6176 403d 41d1 3abd 4bbc c53d
00000170: 5298 cc3d 0069 693d d301 4dbc 0140 8a3c
00000180: 037d 043e d8cb efbd 7642 473b e0cd a439
00000190: a745 cebd c9ff a73c bab3 ebbd 89e5 03be
000001a0: 2b90 e33c 68a2 17bd 2477 9f3d 2596 f0bc
000001b0: 6f2c ab3d 9553 323d a683 e2bc 4a0c 083e
000001c0: 9376 8e3d aaab 08be fe81 56bd 0602 62bd
000001d0: 3c31 82bd 81f2 e3bd 1951 15bd eba1 c5bc
000001e0: 4bd7 1dbe ea7e a73c 7c38 0cbe 8b6e 38bb
000001f0: 03a9 c23d 2166 a33c d13b 4ebd 8363 273e
-0.011052827 -0.16439126 0.086040325 0.021927234 -0.052029237 0.0052302335 0.034676764 -0.021355066
0.13639781 0.0953328 0.09858457 -0.032842387 0.0532381 -0.15428273 0.18338408 0.028300842
0.01360698 -0.019387964 -0.0062432587 0.01545842 -0.049748134 0.14343937 -0.15479484 0.04721563
0.11284728 -0.0038851998 0.1664373 0.14405721 -0.054347184 -0.09044684 -0.034387942 0.10770523
-0.074554905 -0.07748194 0.13848087 -0.1443466 0.06874166 -0.002827042 0.0900082 -0.06266701
0.0007557562 -0.06243969 0.025084391 -0.040664647 0.11367228 0.17020854 -0.07005763 0.09670312
0.15988809 0.11161238 -0.038469873 -0.13407709 -0.06533552 -0.06573239 -0.06368941 -0.07610724
0.091042355 0.0370711 -0.12512371 0.068627924 0.16570495 -0.16385359 0.0539157 0.0016513135
0.13299844 -0.041312627 -0.11263998 -0.053695574 -0.17197242 0.07045993 -0.14890005 -0.0490702
-0.07881164 -0.14164613 0.007027557 0.020512324 -0.10683659 0.18000124 0.16322215 -0.027257785
-0.08843473 -0.08084009 -0.17972237 -0.024813542 -0.0068418593 -0.041473404 0.055464346 -0.07393709
0.0004121928 0.046987895 -0.045609716 0.09655055 0.0998999 0.0569849 -0.012512642 0.016876223
0.12938313 -0.11708802 0.0030404604 0.00031433906 -0.10071879 0.02050771 -0.115088895 -0.1288053
0.027778706 -0.037020117 0.07786396 -0.02936847 0.083580844 0.04353674 -0.027650665 0.13285938
0.0695621 -0.13346735 -0.052370064 -0.05517771 -0.06357047 -0.11130238 -0.036454294 -0.02412506
-0.15414159 0.02044626 -0.13693422 -0.002814206 0.09504893 0.01994616 -0.050350014 0.16346554

lstm.bias_hh_l0 f4 [128]
00000000: 0bf0 ab3d f6a8 d23d dfc9 1ebe 797e 82bd
00000010: 7b38 123e f4a3 453c c80c 9cba d29e e0bd
00000020: 64d1 d73d c405 003e b139 253e a93b 10be
00000030: 1bef 203d dae7 d63d b2f8 c8bd 0883 ff3b
00000040: 1230 1a3e c3bf 0a3e 1a15 84bd e39c 39be
00000050: a1fb adbd 34a9 0d3d c041 223e aab4 023e
00000060: 99a1 f7bc 04ef 9cbc 789d 053e 34d6 94bd
00000070: 0224 93bc 8468 ef3d 286f 063d 5f1d 193e
00000080: 0f17 223d a143 37bd e1c0 2f3e 3293 85bc
00000090: b358 63bd bdf3 ab3c 3d7e 46bd 5f8e b73d
000000a0: b867 a73d b6af e83d b5fb 193e 692b 653c
000000b0: 617d 263e 96a9 e33d b3d9 423c 2fc8 c93c
000000c0: e317 8f3d e661 81bd ec32 1d3e b1c9 953b
000000d0: 6ec1 9dbc b8fc c73d 41d1 d13d b710 04be
000000e0: e045 1dbe 9ac1 98bd 9b43 09bd 009a 92bc
000000f0: cfa0 593d 95de b73d ced1 8a3d fad6 28be
00000100: 03e2 99bd 3eab 353e 4f44 133e 461e 2abd
00000110: af68 293d 52f8 25bd 8d3c 323e 7725 9a3d
00000120: 272f 9a3d a463 1cbe c0e7 0cbd 9fa0 093e
00000130: d75e 76bd e177 d83c 89ac 063e 1562 853d
00000140: aac8 83bd b546 32be 9458 f23d e2b1 3a3e
00000150: 93e8 f43d 7609 8fbd 446a 0fbd 9254 b53d
00000160: 530d 3dbe 8503 ca3d 173d a33d f54e 8e3d
00000170: f082 db3d 5cfc 163e 0053 16be 43fe c93d
00000180: 703d fcbc 470c afbc e669 013a 47cb 7e3d
00000190: fa73 183e 61db 25be 3ee9 de3d 213f 103e
000001a0: 82b3 903c 8ece 12be dbd0 e2bd cae0 b7bd
000001b0: cb3c 483c 9069 e9bd 514e 303d f054 e1bd
000001c0: b617 c43d e0b7 bb38 adde 3abe 0277 03be
000001d0: ee77 a33d c336 183e a757 98bd 1e88 04bd
000001e0: f9c2 853c 7e73 1a3e 9fec 04be 809a 823d
000001f0: c934 e5bd 9032 21be dd91 17bd 84a4 733c
0.08395394 0.10286133 -0.15506695 -0.06371779 0.14279358 0.012063015 -0.0011905665 -0.109677926
0.10537985 0.125022 0.16135289 -0.14085259 0.03929053 0.10493441 -0.0981306 0.0077976026
0.150574 0.13549714 -0.06449337 -0.18126254 -0.0849526 0.034585193 0.15845394 0.1276423
-0.030228423 -0.01915694 0.13048351 -0.072674185 -0.017961506 0.11689857 0.03282085 0.1495261
0.03957277 -0.04474223 0.17163421 -0.01630554 -0.055504512 0.020990247 -0.048460234 0.08962702
0.0817408 0.11361639 0.15037425 0.013987401 0.16258766 0.1111633 0.011892724 0.024631588
0.06986978 -0.06317501 0.15351456 0.0045711626 -0.019257274 0.09764999 0.1024499 -0.12897001
-0.15358686 -0.074588016 -0.03351174 -0.017895699 0.053131875 0.08978001 0.06778298 -0.16488257
-0.075138114 0.17741105 0.14381526 -0.041532777 0.0413596 -0.04052002 0.17405911 0.07526677
0.07528525 -0.15272385 -0.0344007 0.13440178 -0.06014904 0.02642435 0.13151754 0.06512848
-0.06434758 -0.17409785 0.11833301 0.1823192 0.119584225 -0.069842264 -0.035013452 0.08854021
-0.18462114 0.098639525 0.07970636 0.069486536 0.10718334 0.14744705 -0.146801 0.0986295
-0.030791014 -0.021368159 0.00049367396 0.06220558 0.14887992 -0.16196968 0.10884331 0.14086582
0.017663721 -0.14336607 -0.11074992 -0.08978422 0.012221525 -0.113970876 0.04304344 -0.11002529
0.09574835 8.951104e-05 -0.18249007 -0.12838367 0.07981859 0.1486464 -0.07438593 -0.032356374
0.016328322 0.1508312 -0.12980889 0.06377125 -0.111917086 -0.15741944 -0.03700434 0.014870767

fc.weight f4 [1, 32]
00000000: 582f 99bd 96a0 cbbd 85e8 113d 80b3 313e
00000010: 4c0f f23d 231a d4bb 7b03 8fbc 84ca 453d
00000020: 714c c63d 8737 443d 8d0b fa3d 032f 0abe
00000030: aa2a 333e 2586 18be 76d9 26bd 6709 1a3e
00000040: fb13 263e 4041 d33d 681f 3b3d e38e cdbd
00000050: 3b7b 8b3d 9a5b b2bd 5dc3 ec3d 4dec fb3d
00000060: c3ad b93d 6c1f 3fbe b3f7 453c f70b 00be
00000070: 7b98 a3bc 1d9b 933d a3f3 8b3b fa69 033e
-0.07479733 -0.09942739 0.03562214 0.1735363 0.11819324 -0.0064728423 -0.017457714 0.048288837
0.09682549 0.047904518 0.122092344 -0.13494496 0.17496744 -0.14894922 -0.04073473 0.15042649
0.1621856 0.1031518 0.04568425 -0.10037019 0.06810614 -0.08708878 0.115607 0.1230093
0.090663455 -0.1866433 0.012082982 -0.12504564 -0.01997017 0.0720732 0.004270987 0.12833396

exp_avg f4 [128, 5]
00000000: a29f 4139 015f b038 33a3 47b9 cae8 4c38
00000010: b30b ab38 e404 aa37 dc25 4138 d981 32b9
00000020: bd74 3eb7 db28 9cb7 65a1 e738 f296 9d37
00000030: 4c91 b636 064e 85b7 a29a 98b6 47a1 1d38
00000040: 1568 5138 ae0a 0cb9 df0c b438 c4f0 e338
00000050: da03 0c3a 3ed0 9b38 298c 57b8 5b7e 10b9
00000060: 1918 92b8 c6e2 e2b5 9fca 2737 0b22 2b37
00000070: ebb0 8836 41a0 8236 61de ca37 0d86 5537
00000080: 91c3 9b37 8b4a b937 6e07 e737 d7ae deb8
00000090: d128 3db7 dc64 6538 6ac8 1c38 c02f 0738
000000a0: 8cd6 8239 f602 a337 db4f d738 242f c1b4
000000b0: c4f3 7c38 95fc fa37 2116 3eb8 3f3b c7b8
000000c0: 5cef 6fb8 c171 1cb8 ea3a a7b9 88c3 6038
000000d0: 9f02 31b8 7708 6839 e232 5c39 5b1c 2e39
000000e0: 3618 7035 0158 7838 4c16 15b8 3f62 1638
000000f0: 990f bb39 d4cd 7b35 b3ef b5b9 315d 9638
00000100: 8ecb 0c39 1fa4 703a b3cf 2839 cb17 97b9
00000110: 05b5 b0b7 a77b bb38 333b 38b8 e6a5 b8b7
00000120: b334 9eb8 fdcb 5cb6 fec2 6eb6 5db4 f539
00000130: 8a71 99b7 ff0b b139 a00a 76b9 388e 44b9
00000140: 7935 d339 fa7c 4739 1fdc c8b9 a808 d938
00000150: d08a 1139 ac00 e639 56fd 9d38 d860 aeb9
00000160: 5f6b 38b7 1f1c 6d38 5bce a5b8 79f1 00b8
00000170: 1e89 c5b7 45fd 76b6 553d 2fb7 8c0b 3339
00000180: 0fc9 26b8 a500 cd38 b09a e8b8 6e6e 95b8
00000190: 8a69 c138 80f4 8738 992c d438 e298 a1b7
000001a0: d786 aab7 4440 4fb9 2294 e538 5231 3538
000001b0: 06b1 2939 2c1c df38 cd11 f538 d0eb 7238
000001c0: 2f05 02b8 7bd3 4f38 3403 7e38 8efc 90b9
000001d0: 8a41 36b8 e01d c9b8 e6c2 9d38 b40a 3438
000001e0: a50d 9039 6068 d338 5050 32b9 79b0 c238
000001f0: a1ff 0c39 3a43 95b9 f9b4 a6b6 cfaa 41b9
00000200: bd41 bb39 41d9 cf39 9151 2fb8 fa98 72b5
00000210: 3e16 7337 e77a ae37 e52e 9b37 16fa b239
00000220: 48cd 9238 a92d 9438 f32a bdb8 456b 99b7
00000230: 675d d4b7 feec 79b6 a399 c0b7 b0c0 a537
00000240: 6c10 c137 9e93 8bb9 5133 9738 8f97 7038
00000250: 0b20 fa38 73a7 6738 a1c0 0336 d886 4035
00000260: 9aa7 6cb5 c15a 3935 e3de 5135 1e1e 62ba
00000270: 49ef e7b8 f92f 50b8 afae 8339 26c0 1b39
00000280: 0000 0000 0000 0000 0000 0000 0000 0000
00000290: 0000 0000 0000 0000 0000 0000 0000 0000
000002a0: 0000 0000 0000 0000 0000 0000 0000 0000
000002b0: 0000 0000 0000 0000 0000 0000 0000 0000
000002c0: 0000 0000 0000 0000 0000 0000 0000 0000
000002d0: 0000 0000 0000 0000 0000 0000 0000 0000
000002e0: 0000 0000 0000 0000 0000 0000 0000 0000
000002f0: 0000 0000 0000 0000 0000 0000 0000 0000
00000300: 0000 0000 0000 0000 0000 0000 0000 0000
00000310: 0000 0000 0000 0000 0000 0000 0000 0000
00000320: 0000 0000 0000 0000 0000 0000 0000 0000
00000330: 0000 0000 0000 0000 0000 0000 0000 0000
00000340: 0000 0000 0000 0000 0000 0000 0000 0000
00000350: 0000 0000 0000 0000 0000 0000 0000 0000
00000360: 0000 0000 0000 0000 0000 0000 0000 0000
00000370: 0000 0000 0000 0000 0000 0000 0000 0000
00000380: 0000 0000 0000 0000 0000 0000 0000 0000
00000390: 0000 0000 0000 0000 0000 0000 0000 0000
000003a0: 0000 0000 0000 0000 0000 0000 0000 0000
000003b0: 0000 0000 0000 0000 0000 0000 0000 0000
000003c0: 0000 0000 0000 0000 0000 0000 0000 0000
000003d0: 0000 0000 0000 0000 0000 0000 0000 0000
000003e0: 0000 0000 0000 0000 0000 0000 0000 0000
000003f0: 0000 0000 0000 0000 0000 0000 0000 0000
0.00018465382 8.41003e-05 -0.00019038915 4.8854192e-05 8.1560946e-05 2.0267857e-05 4.6050045e-05 -0.00017023775
-1.1352063e-05 -1.8615674e-05 0.000110450004 1.8786148e-05 5.4409375e-06 -1.5891168e-05 -4.5479546e-06 3.7581918e-05
4.9926417e-05 -0.00013355419 8.585466e-05 0.000108690496 0.000534115 7.429764e-05 -5.139053e-05 -0.00013779981
-6.966311e-05 -1.6904312e-06 1.0001152e-05 1.02003205e-05 4.073712e-06 3.892958e-06 2.418383e-05 1.27270005e-05
1.8568508e-05 2.208843e-05 2.7540806e-05 -0.000106183514 -1.1274781e-05 5.4691787e-05 3.737995e-05 3.223098e-05
0.00024955382 1.9432493e-05 0.00010266873 -3.598335e-07 6.0308506e-05 2.991994e-05 -4.532014e-05 -9.500095e-05
-5.720496e-05 -3.729924e-05 -0.00031896617 5.3587864e-05 -4.220253e-05 0.00022128398 0.0002099979 0.00016604496
8.94422e-07 5.9209768e-05 -3.5545134e-05 3.5854286e-05 0.0003567904 9.3804306e-07 -0.000347016 7.1699156e-05
0.0001342727 0.00091797294 0.00016099103 -0.00028818691 -2.1065129e-05 8.939887e-05 -4.3924152e-05 -2.2011762e-05
-7.543843e-05 -3.2901291e-06 -3.5578264e-06 0.00046864423 -1.8291892e-05 0.0003376901 -0.00023464346 -0.00018744997
0.00040284896 0.00019024676 -0.00038310976 0.00010348979 0.0001387999 0.0004386952 7.533531e-05 -0.0003326002
-1.0992254e-05 5.6531393e-05 -7.90625e-05 -3.0742467e-05 -2.354808e-05 -3.6804279e-06 -1.0445093e-05 0.00017075072
-3.9764735e-05 9.775282e-05 -0.00011091435 -7.125443e-05 9.222615e-05 6.482843e-05 0.00010117255 -1.9263887e-05
-2.0328369e-05 -0.00019764999 0.00010947163 4.3199696e-05 0.00016183042 0.00010638716 0.00011685826 5.7916914e-05
-3.0999243e-05 4.9549602e-05 6.0561302e-05 -0.00027653988 -4.345322e-05 -9.5899915e-05 7.522646e-05 4.2925312e-05
0.00027475986 0.000100807054 -0.00017005322 9.2835115e-05 0.0001344667 -0.00028469582 -4.9682535e-06 -0.00018469545
0.00035716398 0.00039643983 -4.1799216e-05 -9.0374635e-07 1.4489107e-05 2.0799647e-05 1.8499277e-05 0.00034137134
7.000059e-05 7.065695e-05 -9.020222e-05 -1.8288973e-05 -2.5315863e-05 -3.724184e-06 -2.2959726e-05 1.975926e-05
2.301504e-05 -0.0002662213 7.2097995e-05 5.736161e-05 0.000119268974 5.523064e-05 1.9632646e-06 7.17218e-07
-8.8160743e-07 6.9049935e-07 7.818291e-07 -0.00086257036 -0.00011059509 -4.9635742e-05 0.00025116417 0.00014853533
0.0 0.0 0.0 0.0 0.0 0.0 0.0 0.0
0.0 0.0 0.0 0.0 0.0 0.0 0.0 0.0
0.0 0.0 0.0 0.0 0.0 0.0 0.0 0.0
0.0 0.0 0.0 0.0 0.0 0.0 0.0 0.0
0.0 0.0 0.0 0.0 0.0 0.0 0.0 0.0
0.0 0.0 0.0 0.0 0.0 0.0 0.0 0.0
0.0 0.0 0.0 0.0 0.0 0.0 0.0 0.0
0.0 0.0 0.0 0.0 0.0 0.0 0.0 0.0
0.0 0.0 0.0 0.0 0.0 0.0 0.0 0.0
0.0 0.0 0.0 0.0 0.0 0.0 0.0 0.0
0.0 0.0 0.0 0.0 0.0 0.0 0.0 0.0
0.0 0.0 0.0 0.0 0.0 0.0 0.0 0.0

exp_avg_sq f4 [128, 5]
00000000: 9bb8 1d33 f62f e132 877c c032 e9c7 cf32
00000010: 3dd4 cd32 f524 0432 564a 1b31 44ba b531
00000020: 76a6 1231 0c71 ae31 a544 b630 2838 e12f
00000030: 7b9b e12f cd3f 3530 8ab4 0530 136e a132
00000040: e30a 7632 d995 3a32 e641 a931 ba37 7632
00000050: 8d3b 1833 788e c131 3885 da31 395f 6732
00000060: 99e4 8332 39e3 bd2e 64d4 bb2e d351 ab2e
00000070: c79c 0a2e 3000 fe2d 757e a32f 54df 392f
00000080: 650e cb2e 62dd 432f 18f5 1f2f 1266 7931
00000090: bf32 d730 a8f6 e030 0577 4031 4943 2531
000000a0: d4ad 5332 3327 a731 2a81 4131 3866 5a31
000000b0: abad c431 896f 8131 fa96 4730 d39d e230
000000c0: 44ec 3030 6fbf 7730 1211 5333 88d9 0532
000000d0: 12e4 1c32 d7b7 eb31 669e fd31 6e65 9232
000000e0: 9280 bd31 4b33 f031 fb30 d031 57aa 8d31
000000f0: 5ad4 9033 d414 b233 1dea 7733 bbeb 4333
00000100: 1f79 7233 4992 0234 d000 d733 25ad 9833
00000110: ed1f dc33 a2df d033 c197 6830 acc7 522f
00000120: 3d94 3b30 2b54 512f 062f 452f 21e8 4b34
00000130: 503c 5833 c649 5933 3696 3733 be99 0233
00000140: 1869 1c34 d4f7 9833 25c2 8633 df18 b433
00000150: d56d 9d33 4fac 9833 ac22 7533 3815 3e33
00000160: 04a7 5c33 f3eb 6733 c953 f430 a7c8 4530
00000170: e4ad 1630 ee16 8b30 3402 8230 3949 1833
00000180: fc46 8132 1f8e 8b32 49cb 4232 eeec 3932
00000190: 2c2c 8931 f63e a831 d464 9431 0564 7a30
000001a0: 77c0 da30 9389 0833 663e 9e31 0f13 ab31
000001b0: f1f1 b631 e27f 9e31 367f ea31 0572 ab31
000001c0: 5f2d 8331 498d 9d31 186c 9731 49da 3932
000001d0: e36f 8e31 1e6e 9f31 7a57 9031 01d6 a431
000001e0: 8cdd 6333 abbc 1d33 5a08 ca32 7443 0c33
000001f0: 0726 0c33 2e63 2734 cd4f 9933 fb15 5133
00000200: e395 7c33 b545 fd32 6ac0 fc2f 3d66 002f
00000210: 21da 1a2f 8aec 862f 1c0d 8e2f 8780 0d33
00000220: 641a 5132 e05b 5f32 7e72 0b32 de8f cd31
00000230: 9414 d82f 301b 1a2f 264e 1d2f d14e b32e
00000240: e375 682e d2b9 c632 985f 0632 146e a031
00000250: 2d9e c231 f497 0b32 b9d1 5e2c 87a3 4b2b
00000260: 73a3 582b 4811 af2b 73ac 462b 87fc bf33
00000270: 227d 3d32 c904 9832 255c bb32 deeb e032
00000280: 0000 0000 0000 0000 0000 0000 0000 0000
00000290: 0000 0000 0000 0000 0000 0000 0000 0000
000002a0: 0000 0000 0000 0000 0000 0000 0000 0000
000002b0: 0000 0000 0000 0000 0000 0000 0000 0000
000002c0: 0000 0000 0000 0000 0000 0000 0000 0000
000002d0: 0000 0000 0000 0000 0000 0000 0000 0000
000002e0: 0000 0000 0000 0000 0000 0000 0000 0000
000002f0: 0000 0000 0000 0000 0000 0000 0000 0000
00000300: 0000 0000 0000 0000 0000 0000 0000 0000
00000310: 0000 0000 0000 0000 0000 0000 0000 0000
00000320: 0000 0000 0000 0000 0000 0000 0000 0000
00000330: 0000 0000 0000 0000 0000 0000 0000 0000
00000340: 0000 0000 0000 0000 0000 0000 0000 0000
00000350: 0000 0000 0000 0000 0000 0000 0000 0000
00000360: 0000 0000 0000 0000 0000 0000 0000 0000
00000370: 0000 0000 0000 0000 0000 0000 0000 0000
00000380: 0000 0000 0000 0000 0000 0000 0000 0000
00000390: 0000 0000 0000 0000 0000 0000 0000 0000
000003a0: 0000 0000 0000 0000 0000 0000 0000 0000
000003b0: 0000 0000 0000 0000 0000 0000 0000 0000
000003c0: 0000 0000 0000 0000 0000 0000 0000 0000
000003d0: 0000 0000 0000 0000 0000 0000 0000 0000
000003e0: 0000 0000 0000 0000 0000 0000 0000 0000
000003f0: 0000 0000 0000 0000 0000 0000 0000 0000
3.672231e-08 2.6215258e-08 2.240837e-08 2.418888e-08 2.3961656e-08 7.691814e-09 2.2597724e-09 5.2889693e-09
2.1340418e-09 5.0769184e-09 1.3261753e-09 4.0967163e-10 4.1037737e-10 6.593808e-10 4.864168e-10 1.8792923e-08
1.432156e-08 1.0860696e-08 4.926039e-09 1.4331755e-08 3.544442e-08 5.633236e-09 6.3597803e-09 1.3467621e-08
1.5354361e-08 8.635088e-11 8.5415036e-11 7.7907146e-11 3.1516813e-11 2.887654e-11 2.973938e-10 1.6904994e-10
9.233928e-11 1.7813798e-10 1.454804e-10 3.629229e-09 1.5657732e-09 1.6368249e-09 2.8007332e-09 2.4048907e-09
1.232134e-08 4.864796e-09 2.8158618e-09 3.178128e-09 5.7240945e-09 3.767074e-09 7.261033e-10 1.648852e-09
6.436418e-10 9.013012e-10 4.914279e-08 7.79108e-09 9.132252e-09 6.8603003e-09 7.381277e-09 1.7042762e-08
5.5152407e-09 6.9907506e-09 6.059165e-09 4.1230055e-09 6.744149e-08 8.2925595e-08 5.7722094e-08 4.561637e-08
5.6455175e-08 1.2160412e-07 1.00118655e-07 7.1095464e-08 1.02503556e-07 9.726433e-08 8.4616764e-10 1.9170326e-10
6.8240863e-10 1.9038342e-10 1.7933752e-10 1.8990296e-07 5.0346273e-08 5.0591346e-08 4.2744624e-08 3.040781e-08
1.4566865e-07 7.123131e-08 6.275176e-08 8.386427e-08 7.3308605e-08 7.109394e-08 5.707504e-08 4.425712e-08
5.137464e-08 5.3998473e-08 1.777715e-09 7.1953327e-10 5.4816796e-10 1.0120098e-09 9.459371e-10 3.5456853e-08
1.5049856e-08 1.6246359e-08 1.1338508e-08 1.0822289e-08 3.9922465e-09 4.8966013e-09 4.3188297e-09 9.1091606e-10
1.5916289e-09 3.179009e-08 4.605499e-09 4.9789217e-09 5.3244027e-09 4.612944e-09 6.8247585e-09 4.9897175e-09
3.81776e-09 4.5853636e-09 4.4069672e-09 1.081805e-08 4.145464e-09 4.640028e-09 4.2008965e-09 4.7973576e-09
5.3054052e-08 3.6726004e-08 2.3519693e-08 3.265764e-08 3.2630876e-08 1.5589168e-07 7.1391334e-08 4.8681596e-08
5.8809643e-08 2.9484776e-08 4.597525e-10 1.1677855e-10 1.4083713e-10 2.454253e-10 2.5838964e-10 3.2946016e-08
1.2171402e-08 1.3001198e-08 8.116897e-09 5.982641e-09 3.9304793e-10 1.4015877e-10 1.4306831e-10 8.153978e-11
5.2855397e-11 2.3134735e-08 7.821562e-09 4.6691273e-09 5.6641256e-09 8.125415e-09 3.1664517e-12 7.234703e-13
7.6965447e-13 1.2439294e-12 7.058305e-13 8.940065e-08 1.10297e-08 1.7697305e-08 2.1811568e-08 2.6184292e-08
0.0 0.0 0.0 0.0 0.0 0.0 0.0 0.0
0.0 0.0 0.0 0.0 0.0 0.0 0.0 0.0
0.0 0.0 0.0 0.0 0.0 0.0 0.0 0.0
0.0 0.0 0.0 0.0 0.0 0.0 0.0 0.0
0.0 0.0 0.0 0.0 0.0 0.0 0.0 0.0
0.0 0.0 0.0 0.0 0.0 0.0 0.0 0.0
0.0 0.0 0.0 0.0 0.0 0.0 0.0 0.0
0.0 0.0 0.0 0.0 0.0 0.0 0.0 0.0
0.0 0.0 0.0 0.0 0.0 0.0 0.0 0.0
0.0 0.0 0.0 0.0 0.0 0.0 0.0 0.0
0.0 0.0 0.0 0.0 0.0 0.0 0.0 0.0
0.0 0.0 0.0 0.0 0.0 0.0 0.0 0.0

exp_avg f4 [128, 32]
00000000: 0000 0000 0000 0000 0000 0000 0000 0000
00000010: 0000 0000 0000 0000 0000 0000 0000 0000
00000020: 0000 0000 0000 0000 0000 0000 0000 0000
00000030: 0000 0000 0000 0000 0000 0000 0000 0000
00000040: 0000 0000 0000 0000 0000 0000 0000 0000
00000050: 0000 0000 0000 0000 0000 0000 0000 0000
00000060: 0000 0000 0000 0000 0000 0000 0000 0000
00000070: 0000 0000 0000 0000 0000 0000 0000 0000
00000080: 0000 0000 0000 0000 0000 0000 0000 0000
00000090: 0000 0000 0000 0000 0000 0000 0000 0000
000000a0: 0000 0000 0000 0000 0000 0000 0000 0000
000000b0: 0000 0000 0000 0000 0000 0000 0000 0000
000000c0: 0000 0000 0000 0000 0000 0000 0000 0000
000000d0: 0000 0000 0000 0000 0000 0000 0000 0000
000000e0: 0000 0000 0000 0000 0000 0000 0000 0000
000000f0: 0000 0000 0000 0000 0000 0000 0000 0000
00000100: 0000 0000 0000 0000 0000 0000 0000 0000
00000110: 0000 0000 0000 0000 0000 0000 0000 0000
00000120: 0000 0000 0000 0000 0000 0000 0000 0000
00000130: 0000 0000 0000 0000 0000 0000 0000 0000
00000140: 0000 0000 0000 0000 0000 0000 0000 0000
00000150: 0000 0000 0000 0000 0000 0000 0000 0000
00000160: 0000 0000 0000 0000 0000 0000 0000 0000
00000170: 0000 0000 0000 0000 0000 0000 0000 0000
00000180: 0000 0000 0000 0000 0000 0000 0000 0000
00000190: 0000 0000 0000 0000 0000 0000 0000 0000
000001a0: 0000 0000 0000 0000 0000 0000 0000 0000
000001b0: 0000 0000 0000 0000 0000 0000 0000 0000
000001c0: 0000 0000 0000 0000 0000 0000 0000 0000
000001d0: 0000 0000 0000 0000 0000 0000 0000 0000
000001e0: 0000 0000 0000 0000 0000 0000 0000 0000
000001f0: 0000 0000 0000 0000 0000 0000 0000 0000
00000200: 0000 0000 0000 0000 0000 0000 0000 0000
00000210: 0000 0000 0000 0000 0000 0000 0000 0000
00000220: 0000 0000 0000 0000 0000 0000 0000 0000
00000230: 0000 0000 0000 0000 0000 0000 0000 0000
00000240: 0000 0000 0000 0000 0000 0000 0000 0000
00000250: 0000 0000 0000 0000 0000 0000 0000 0000
00000260: 0000 0000 0000 0000 0000 0000 0000 0000
00000270: 0000 0000 0000 0000 0000 0000 0000 0000
00000280: 0000 0000 0000 0000 0000 0000 0000 0000
00000290: 0000 0000 0000 0000 0000 0000 0000 0000
000002a0: 0000 0000 0000 0000 0000 0000 0000 0000
000002b0: 0000 0000 0000 0000 0000 0000 0000 0000
000002c0: 0000 0000 0000 0000 0000 0000 0000 0000
000002d0: 0000 0000 0000 0000 0000 0000 0000 0000
000002e0: 0000 0000 0000 0000 0000 0000 0000 0000
000002f0: 0000 0000 0000 0000 0000 0000 0000 0000
00000300: 0000 0000 0000 0000 0000 0000 0000 0000
00000310: 0000 0000 0000 0000 0000 0000 0000 0000
00000320: 0000 0000 0000 0000 0000 0000 0000 0000
00000330: 0000 0000 0000 0000 0000 0000 0000 0000
00000340: 0000 0000 0000 0000 0000 0000 0000 0000
00000350: 0000 0000 0000 0000 0000 0000 0000 0000
00000360: 0000 0000 0000 0000 0000 0000 0000 0000
00000370: 0000 0000 0000 0000 0000 0000 0000 0000
00000380: 0000 0000 0000 0000 0000 0000 0000 0000
00000390: 0000 0000 0000 0000 0000 0000 0000 0000
000003a0: 0000 0000 0000 0000 0000 0000 0000 0000
000003b0: 0000 0000 0000 0000 0000 0000 0000 0000
000003c0: 0000 0000 0000 0000 0000 0000 0000 0000
000003d0: 0000 0000 0000 0000 0000 0000 0000 0000
000003e0: 0000 0000 0000 0000 0000 0000 0000 0000
000003f0: 0000 0000 0000 0000 0000 0000 0000 0000
0.0 0.0 0.0 0.0 0.0 0.0 0.0 0.0
0.0 0.0 0.0 0.0 0.0 0.0 0.0 0.0
0.0 0.0 0.0 0.0 0.0 0.0 0.0 0.0
0.0 0.0 0.0 0.0 0.0 0.0 0.0 0.0
0.0 0.0 0.0 0.0 0.0 0.0 0.0 0.0
0.0 0.0 0.0 0.0 0.0 0.0 0.0 0.0
0.0 0.0 0.0 0.0 0.0 0.0 0.0 0.0
0.0 0.0 0.0 0.0 0.0 0.0 0.0 0.0
0.0 0.0 0.0 0.0 0.0 0.0 0.0 0.0
0.0 0.0 0.0 0.0 0.0 0.0 0.0 0.0
0.0 0.0 0.0 0.0 0.0 0.0 0.0 0.0
0.0 0.0 0.0 0.0 0.0 0.0 0.0 0.0
0.0 0.0 0.0 0.0 0.0 0.0 0.0 0.0
0.0 0.0 0.0 0.0 0.0 0.0 0.0 0.0
0.0 0.0 0.0 0.0 0.0 0.0 0.0 0.0
0.0 0.0 0.0 0.0 0.0 0.0 0.0 0.0
0.0 0.0 0.0 0.0 0.0 0.0 0.0 0.0
0.0 0.0 0.0 0.0 0.0 0.0 0.0 0.0
0.0 0.0 0.0 0.0 0.0 0.0 0.0 0.0
0.0 0.0 0.0 0.0 0.0 0.0 0.0 0.0
0.0 0.0 0.0 0.0 0.0 0.0 0.0 0.0
0.0 0.0 0.0 0.0 0.0 0.0 0.0 0.0
0.0 0.0 0.0 0.0 0.0 0.0 0.0 0.0
0.0 0.0 0.0 0.0 0.0 0.0 0.0 0.0
0.0 0.0 0.0 0.0 0.0 0.0 0.0 0.0
0.0 0.0 0.0 0.0 0.0 0.0 0.0 0.0
0.0 0.0 0.0 0.0 0.0 0.0 0.0 0.0
0.0 0.0 0.0 0.0 0.0 0.0 0.0 0.0
0.0 0.0 0.0 0.0 0.0 0.0 0.0 0.0
0.0 0.0 0.0 0.0 0.0 0.0 0.0 0.0
0.0 0.0 0.0 0.0 0.0 0.0 0.0 0.0
0.0 0.0 0.0 0.0 0.0 0.0 0.0 0.0

exp_avg_sq f4 [128, 32]
00000000: 0000 0000 0000 0000 0000 0000 0000 0000
00000010: 0000 0000 0000 0000 0000 0000 0000 0000
00000020: 0000 0000 0000 0000 0000 0000 0000 0000
00000030: 0000 0000 0000 0000 0000 0000 0000 0000
00000040: 0000 0000 0000 0000 0000 0000 0000 0000
00000050: 0000 0000 0000 0000 0000 0000 0000 0000
00000060: 0000 0000 0000 0000 0000 0000 0000 0000
00000070: 0000 0000 0000 0000 0000 0000 0000 0000
00000080: 0000 0000 0000 0000 0000 0000 0000 0000
00000090: 0000 0000 0000 0000 0000 0000 0000 0000
000000a0: 0000 0000 0000 0000 0000 0000 0000 0000
000000b0: 0000 0000 0000 0000 0000 0000 0000 0000
000000c0: 0000 0000 0000 0000 0000 0000 0000 0000
000000d0: 0000 0000 0000 0000 0000 0000 0000 0000
000000e0: 0000 0000 0000 0000 0000 0000 0000 0000
000000f0: 0000 0000 0000 0000 0000 0000 0000 0000
00000100: 0000 0000 0000 0000 0000 0000 0000 0000
00000110: 0000 0000 0000 0000 0000 0000 0000 0000
00000120: 0000 0000 0000 0000 0000 0000 0000 0000
00000130: 0000 0000 0000 0000 0000 0000 0000 0000
00000140: 0000 0000 0000 0000 0000 0000 0000 0000
00000150: 0000 0000 0000 0000 0000 0000 0000 0000
00000160: 0000 0000 0000 0000 0000 0000 0000 0000
00000170: 0000 0000 0000 0000 0000 0000 0000 0000
00000180: 0000 0000 0000 0000 0000 0000 0000 0000
00000190: 0000 0000 0000 0000 0000 0000 0000 0000
000001a0: 0000 0000 0000 0000 0000 0000 0000 0000
000001b0: 0000 0000 0000 0000 0000 0000 0000 0000
000001c0: 0000 0000 0000 0000 0000 0000 0000 0000
000001d0: 0000 0000 0000 0000 0000 0000 0000 0000
000001e0: 0000 0000 0000 0000 0000 0000 0000 0000
000001f0: 0000 0000 0000 0000 0000 0000 0000 0000
00000200: 0000 0000 0000 0000 0000 0000 0000 0000
00000210: 0000 0000 0000 0000 0000 0000 0000 0000
00000220: 0000 0000 0000 0000 0000 0000 0000 0000
00000230: 0000 0000 0000 0000 0000 0000 0000 0000
00000240: 0000 0000 0000 0000 0000 0000 0000 0000
00000250: 0000 0000 0000 0000 0000 0000 0000 0000
00000260: 0000 0000 0000 0000 0000 0000 0000 0000
00000270: 0000 0000 0000 0000 0000 0000 0000 0000
00000280: 0000 0000 0000 0000 0000 0000 0000 0000
00000290: 0000 0000 0000 0000 0000 0000 0000 0000
000002a0: 0000 0000 0000 0000 0000 0000 0000 0000
000002b0: 0000 0000 0000 0000 0000 0000 0000 0000
000002c0: 0000 0000 0000 0000 0000 0000 0000 0000
000002d0: 0000 0000 0000 0000 0000 0000 0000 0000
000002e0: 0000 0000 0000 0000 0000 0000 0000 0000
000002f0: 0000 0000 0000 0000 0000 0000 0000 0000
00000300: 0000 0000 0000 0000 0000 0000 0000 0000
00000310: 0000 0000 0000 0000 0000 0000 0000 0000
00000320: 0000 0000 0000 0000 0000 0000 0000 0000
00000330: 0000 0000 0000 0000 0000 0000 0000 0000
00000340: 0000 0000 0000 0000 0000 0000 0000 0000
00000350: 0000 0000 0000 0000 0000 0000 0000 0000
00000360: 0000 0000 0000 0000 0000 0000 0000 0000
00000370: 0000 0000 0000 0000 0000 0000 0000 0000
00000380: 0000 0000 0000 0000 0000 0000 0000 0000
00000390: 0000 0000 0000 0000 0000 0000 0000 0000
000003a0: 0000 0000 0000 0000 0000 0000 0000 0000
000003b0: 0000 0000 0000 0000 0000 0000 0000 0000
000003c0: 0000 0000 0000 0000 0000 0000 0000 0000
000003d0: 0000 0000 0000 0000 0000 0000 0000 0000
000003e0: 0000 0000 0000 0000 0000 0000 0000 0000
000003f0: 0000 0000 0000 0000 0000 0000 0000 0000
0.0 0.0 0.0 0.0 0.0 0.0 0.0 0.0
0.0 0.0 0.0 0.0 0.0 0.0 0.0 0.0
0.0 0.0 0.0 0.0 0.0 0.0 0.0 0.0
0.0 0.0 0.0 0.0 0.0 0.0 0.0 0.0
0.0 0.0 0.0 0.0 0.0 0.0 0.0 0.0
0.0 0.0 0.0 0.0 0.0 0.0 0.0 0.0
0.0 0.0 0.0 0.0 0.0 0.0 0.0 0.0
0.0 0.0 0.0 0.0 0.0 0.0 0.0 0.0
0.0 0.0 0.0 0.0 0.0 0.0 0.0 0.0
0.0 0.0 0.0 0.0 0.0 0.0 0.0 0.0
0.0 0.0 0.0 0.0 0.0 0.0 0.0 0.0
0.0 0.0 0.0 0.0 0.0 0.0 0.0 0.0
0.0 0.0 0.0 0.0 0.0 0.0 0.0 0.0
0.0 0.0 0.0 0.0 0.0 0.0 0.0 0.0
0.0 0.0 0.0 0.0 0.0 0.0 0.0 0.0
0.0 0.0 0.0 0.0 0.0 0.0 0.0 0.0
0.0 0.0 0.0 0.0 0.0 0.0 0.0 0.0
0.0 0.0 0.0 0.0 0.0 0.0 0.0 0.0
0.0 0.0 0.0 0.0 0.0 0.0 0.0 0.0
0.0 0.0 0.0 0.0 0.0 0.0 0.0 0.0
0.0 0.0 0.0 0.0 0.0 0.0 0.0 0.0
0.0 0.0 0.0 0.0 0.0 0.0 0.0 0.0
0.0 0.0 0.0 0.0 0.0 0.0 0.0 0.0
0.0 0.0 0.0 0.0 0.0 0.0 0.0 0.0
0.0 0.0 0.0 0.0 0.0 0.0 0.0 0.0
0.0 0.0 0.0 0.0 0.0 0.0 0.0 0.0
0.0 0.0 0.0 0.0 0.0 0.0 0.0 0.0
0.0 0.0 0.0 0.0 0.0 0.0 0.0 0.0
0.0 0.0 0.0 0.0 0.0 0.0 0.0 0.0
0.0 0.0 0.0 0.0 0.0 0.0 0.0 0.0
0.0 0.0 0.0 0.0 0.0 0.0 0.0 0.0
0.0 0.0 0.0 0.0 0.0 0.0 0.0 0.0

exp_avg f4 [128]
00000000: ab8d 1cb9 bc95 41b9 bbe1 0db7 68cc 09b9
00000010: 95d0 5cb9 3d12 8237 a052 fa37 2646 9b38
00000020: f8e6 9b38 b9bb 50b9 3168 0639 fb01 61b8
00000030: c878 f8b9 642f e6b9 2ba1 00b9 4289 1b39
00000040: 587d b9b9 2e26 e8b9 3c70 4eb8 880a a1b8
00000050: 63ff 1539 5b45 8539 3dbb 6d37 ea1f 29b8
00000060: e264 24b9 2c93 eab8 bdf3 df37 6c7a 13b8
00000070: 922b d2b7 c157 7239 4917 06b6 f76c 1939
00000080: 0000 0000 0000 0000 0000 0000 0000 0000
00000090: 0000 0000 0000 0000 0000 0000 0000 0000
000000a0: 0000 0000 0000 0000 0000 0000 0000 0000
000000b0: 0000 0000 0000 0000 0000 0000 0000 0000
000000c0: 0000 0000 0000 0000 0000 0000 0000 0000
000000d0: 0000 0000 0000 0000 0000 0000 0000 0000
000000e0: 0000 0000 0000 0000 0000 0000 0000 0000
000000f0: 0000 0000 0000 0000 0000 0000 0000 0000
00000100: 69fd 23bb c0bc 25bb ad4f 703a 2a17 bb3b
00000110: 70c2 7c3b 9744 9bb9 7ff5 1bba ea41 cf3a
00000120: e371 703b e3f2 923a 9fa7 7f3b 0a4e 78bb
00000130: 8316 be3b 2d84 76bb 7577 8aba 7992 933b
00000140: f122 ab3b 1624 153b 6ccd 983a 9610 2cbb
00000150: 3fc0 143b 531a 3abb e134 543b 8556 8a3b
00000160: 82af 2e3b bed6 bebb a6ee f539 4d92 82bb
00000170: b83d e2b9 7660 fc3a 2379 a238 91c0 913b
00000180: 4b16 13b9 d1f5 55b9 40e0 d5b7 8e25 00b9
00000190: e06c 39b9 ad93 9937 45a2 f337 8d51 8738
000001a0: a9b2 d738 d76d 8ab9 5990 3d39 e0a8 67b8
000001b0: 27e3 feb9 b680 07ba e329 11b9 8c97 db38
000001c0: 6756 c0b9 0c25 0aba bd64 5ab8 7fd2 79b8
000001d0: 9783 0539 66d2 8839 280a 9237 bbe5 c2b8
000001e0: 10ff 40b9 10d4 9bb8 a74c 1838 9ab3 70b8
000001f0: bba5 dbb7 3d9c 6039 5cf1 0bb6 b04d 7539
-0.00014930095 -0.00018461695 -8.456812e-06 -0.00013141485 -0.00021058538 1.55057e-05 2.9840798e-05 7.404042e-05
7.433997e-05 -0.00019906358 0.0001281805 -5.3646025e-05 -0.00047392235 -0.00043904327 -0.00012267071 0.00014833084
-0.00035379338 -0.00044278934 -4.9218754e-05 -7.67904e-05 0.00014304886 0.0002541941 1.4169896e-05 -4.0322462e-05
-0.0001567784 -0.000111854024 2.6697171e-05 -3.5161545e-05 -2.505424e-05 0.0002311161 -1.998111e-06 0.0001463181
0.0 0.0 0.0 0.0 0.0 0.0 0.0 0.0
0.0 0.0 0.0 0.0 0.0 0.0 0.0 0.0
0.0 0.0 0.0 0.0 0.0 0.0 0.0 0.0
0.0 0.0 0.0 0.0 0.0 0.0 0.0 0.0
-0.002502287 -0.0025289506 0.0009167146 0.0057095485 0.0038568042 -0.00029615007 -0.00059493625 0.0015812491
0.0036688976 0.0011211302 0.0039009822 -0.0037888312 0.0058010234 -0.0037615404 -0.0010564165 0.004503545
0.005222671 0.0022757105 0.00116579 -0.0026255003 0.0022697595 -0.0028397038 0.003238015 0.0042217397
0.0026654904 -0.005823939 0.00046907848 -0.0039847256 -0.00043152063 0.0019254822 7.7473254e-05 0.0044480045
-0.00014027317 -0.00020404837 -2.5496003e-05 -0.00012221021 -0.00017683534 1.8307788e-05 2.904342e-05 6.452492e-05
0.00010285277 -0.00026403248 0.00018078218 -5.523197e-05 -0.00048615897 -0.0005169021 -0.00013843882 0.000104709616
-0.00036685469 -0.00052698026 -5.206907e-05 -5.9562266e-05 0.0001273289 0.000260967 1.7409286e-05 -9.2934315e-05
-0.00018405565 -7.430476e-05 3.6311012e-05 -5.7387726e-05 -2.6184009e-05 0.00021420508 -2.0853104e-06 0.00023393962

exp_avg_sq f4 [128]
00000000: c07c 1f33 21b5 ce31 a0e9 4730 48a6 9532
00000010: 035c 9c32 6097 bf2e 2725 852f f66b 5f31
00000020: d8ef c631 df82 1e31 5e82 5632 a54d ff31
00000030: ccf2 df33 c6b9 2534 57d7 8230 864e 9d33
00000040: 22b0 ff33 332d be33 195c c130 fe65 ab32
00000050: da21 b931 6db7 0e32 fa3b dd31 10e0 1632
00000060: fd95 5b33 db81 c633 d095 9e2f 4730 8032
00000070: 43ad 712f 3d3b 3b32 da8e 0c2c 8358 0f33
00000080: 0000 0000 0000 0000 0000 0000 0000 0000
00000090: 0000 0000 0000 0000 0000 0000 0000 0000
000000a0: 0000 0000 0000 0000 0000 0000 0000 0000
000000b0: 0000 0000 0000 0000 0000 0000 0000 0000
000000c0: 0000 0000 0000 0000 0000 0000 0000 0000
000000d0: 0000 0000 0000 0000 0000 0000 0000 0000
000000e0: 0000 0000 0000 0000 0000 0000 0000 0000
000000f0: 0000 0000 0000 0000 0000 0000 0000 0000
00000100: 4a96 6135 de83 b335 14c9 4834 9b8c 9b36
00000110: 8474 6836 05ef a332 8139 8b33 2f72 ef34
00000120: 2ee4 2136 0393 b534 6772 2b36 cce1 6e36
00000130: 3da6 ef36 3908 2e36 1ddf 6b34 4972 7036
00000140: ec5b 8836 5f84 7935 e3de 8334 0ca8 f435
00000150: 77cc 6b35 95af 0f36 296b 0436 3189 7c36
00000160: ee1e aa35 b736 f136 bfec 6033 2627 4a36
00000170: 7a48 1c33 dfbb 8535 3fc5 6b30 629f 9e36
00000180: 21b4 ea32 d46a 0c32 9678 8730 ff0d 5b32
00000190: f24e 6d32 ca51 072f 6448 682f a759 6231
000001a0: f528 0132 54a8 9831 345e d232 21d9 d231
000001b0: 6929 1634 96ac 2534 59c4 9b30 0983 d133
000001c0: 7ac6 ee33 73a3 fd33 a2fb 0a31 e72d b032
000001d0: 9978 9031 653a 0832 23c9 fc31 cf14 2a32
000001e0: 5f08 5c33 395c c233 8235 0530 93e0 4532
000001f0: a1a7 992f f651 2832 0c39 082c 2b22 3433
3.7133532e-08 6.015981e-09 7.272778e-10 1.7421499e-08 1.8202632e-08 8.712564e-11 2.4218957e-10 3.251214e-09
5.7898255e-09 2.3066418e-09 1.24860815e-08 7.430304e-09 1.0428411e-07 1.5434406e-07 9.519948e-10 7.3251655e-08
1.1906401e-07 8.855786e-08 1.4068774e-09 1.99534e-08 5.388057e-09 8.307194e-09 6.438765e-09 8.782095e-09
5.1126325e-08 9.243714e-08 2.884648e-10 1.4923115e-08 2.1980377e-10 1.0898302e-08 1.9974495e-12 3.3375283e-08
0.0 0.0 0.0 0.0 0.0 0.0 0.0 0.0
0.0 0.0 0.0 0.0 0.0 0.0 0.0 0.0
0.0 0.0 0.0 0.0 0.0 0.0 0.0 0.0
0.0 0.0 0.0 0.0 0.0 0.0 0.0 0.0
8.403773e-07 1.3374918e-06 1.8699603e-07 4.6357286e-06 3.4638515e-06 1.9084391e-08 6.483152e-08 4.4600299e-07
2.4123688e-06 3.3820842e-07 2.5547577e-06 3.5596195e-06 7.1421077e-06 2.5932807e-06 2.1967249e-07 3.582931e-06
4.063817e-06 9.2952354e-07 2.4562823e-07 1.8228325e-06 8.784186e-07 2.1410863e-06 1.9731908e-06 3.7630782e-06
1.2674989e-06 7.1887293e-06 5.2369383e-08 3.0123133e-06 3.6387497e-08 9.96395e-07 8.5772806e-10 4.7273215e-06
2.7323098e-08 8.173362e-09 9.856815e-10 1.275066e-08 1.3813166e-08 1.2307236e-10 2.1125995e-10 3.293829e-09
7.518101e-09 4.442919e-09 2.4490056e-08 6.136489e-09 1.3984904e-07 1.5429609e-07 1.133354e-09 9.756156e-08
1.1118841e-07 1.1810962e-07 2.022468e-09 2.050997e-08 4.204662e-09 7.929519e-09 7.357032e-09 9.900034e-09
5.1230355e-08 9.050604e-08 4.846116e-10 1.15179715e-08 2.7949645e-10 9.797523e-09 1.935843e-12 4.194059e-08

exp_avg f4 [128]
00000000: ab8d 1cb9 bc95 41b9 bbe1 0db7 68cc 09b9
00000010: 95d0 5cb9 3d12 8237 a052 fa37 2646 9b38
00000020: f8e6 9b38 b9bb 50b9 3168 0639 fb01 61b8
00000030: c878 f8b9 642f e6b9 2ba1 00b9 4289 1b39
00000040: 587d b9b9 2e26 e8b9 3c70 4eb8 880a a1b8
00000050: 63ff 1539 5b45 8539 3dbb 6d37 ea1f 29b8
00000060: e264 24b9 2c93 eab8 bdf3 df37 6c7a 13b8
00000070: 922b d2b7 c157 7239 4917 06b6 f76c 1939
00000080: 0000 0000 0000 0000 0000 0000 0000 0000
00000090: 0000 0000 0000 0000 0000 0000 0000 0000
000000a0: 0000 0000 0000 0000 0000 0000 0000 0000
000000b0: 0000 0000 0000 0000 0000 0000 0000 0000
000000c0: 0000 0000 0000 0000 0000 0000 0000 0000
000000d0: 0000 0000 0000 0000 0000 0000 0000 0000
000000e0: 0000 0000 0000 0000 0000 0000 0000 0000
000000f0: 0000 0000 0000 0000 0000 0000 0000 0000
00000100: 69fd 23bb c0bc 25bb ad4f 703a 2a17 bb3b
00000110: 70c2 7c3b 9744 9bb9 7ff5 1bba ea41 cf3a
00000120: e371 703b e3f2 923a 9fa7 7f3b 0a4e 78bb
00000130: 8316 be3b 2d84 76bb 7577 8aba 7992 933b
00000140: f122 ab3b 1624 153b 6ccd 983a 9610 2cbb
00000150: 3fc0 143b 531a 3abb e134 543b 8556 8a3b
00000160: 82af 2e3b bed6 bebb a6ee f539 4d92 82bb
00000170: b83d e2b9 7660 fc3a 2379 a238 91c0 913b
00000180: 4b16 13b9 d1f5 55b9 40e0 d5b7 8e25 00b9
00000190: e06c 39b9 ad93 9937 45a2 f337 8d51 8738
000001a0: a9b2 d738 d76d 8ab9 5990 3d39 e0a8 67b8
000001b0: 27e3 feb9 b680 07ba e329 11b9 8c97 db38
000001c0: 6756 c0b9 0c25 0aba bd64 5ab8 7fd2 79b8
000001d0: 9783 0539 66d2 8839 280a 9237 bbe5 c2b8
000001e0: 10ff 40b9 10d4 9bb8 a74c 1838 9ab3 70b8
000001f0: bba5 dbb7 3d9c 6039 5cf1 0bb6 b04d 7539
-0.00014930095 -0.00018461695 -8.456812e-06 -0.00013141485 -0.00021058538 1.55057e-05 2.9840798e-05 7.404042e-05
7.433997e-05 -0.00019906358 0.0001281805 -5.3646025e-05 -0.00047392235 -0.00043904327 -0.00012267071 0.00014833084
-0.00035379338 -0.00044278934 -4.9218754e-05 -7.67904e-05 0.00014304886 0.0002541941 1.4169896e-05 -4.0322462e-05
-0.0001567784 -0.000111854024 2.6697171e-05 -3.5161545e-05 -2.505424e-05 0.0002311161 -1.998111e-06 0.0001463181
0.0 0.0 0.0 0.0 0.0 0.0 0.0 0.0
0.0 0.0 0.0 0.0 0.0 0.0 0.0 0.0
0.0 0.0 0.0 0.0 0.0 0.0 0.0 0.0
0.0 0.0 0.0 0.0 0.0 0.0 0.0 0.0
-0.002502287 -0.0025289506 0.0009167146 0.0057095485 0.0038568042 -0.00029615007 -0.00059493625 0.0015812491
0.0036688976 0.0011211302 0.0039009822 -0.0037888312 0.0058010234 -0.0037615404 -0.0010564165 0.004503545
0.005222671 0.0022757105 0.00116579 -0.0026255003 0.0022697595 -0.0028397038 0.003238015 0.0042217397
0.0026654904 -0.005823939 0.00046907848 -0.0039847256 -0.00043152063 0.0019254822 7.7473254e-05 0.0044480045
-0.00014027317 -0.00020404837 -2.5496003e-05 -0.00012221021 -0.00017683534 1.8307788e-05 2.904342e-05 6.452492e-05
0.00010285277 -0.00026403248 0.00018078218 -5.523197e-05 -0.00048615897 -0.0005169021 -0.00013843882 0.000104709616
-0.00036685469 -0.00052698026 -5.206907e-05 -5.9562266e-05 0.0001273289 0.000260967 1.7409286e-05 -9.2934315e-05
-0.00018405565 -7.430476e-05 3.6311012e-05 -5.7387726e-05 -2.6184009e-05 0.00021420508 -2.0853104e-06 0.00023393962
